src/music/dev_model_weights.pth (torch, 255256 bytes, 22 tensors)

iconv.0.weight f4 [5, 1, 13, 5, 9]
00000000: 7730 9abc 0c9f 90ba 298f 99bc 986d 1f3c
00000010: 74b6 833a c4c8 5dbb 6694 673c cf55 003d
00000020: fff3 403c 2b35 c6bc a676 71bc 45a0 14bd
00000030: 9df5 463c f7a0 fcbc ae49 d7b9 364a 393d
00000040: bbe7 1bbd 8c13 21bd 7704 f8bc 0e3a c3ba
00000050: b686 253d dde8 87bb 606c b93c a870 97bb
00000060: b8d5 b3bc db91 4fbd ca11 cb3a 3301 c0bc
00000070: 8438 203d b57a 9abc c70b 4dbd cbf7 e13b
00000080: 658d ec3c 8b21 45bc f5bb d33c 8656 5cbc
00000090: ffef 233d d01c 9c3c 419f 053b 3e72 15bc
000000a0: d0db aebb fa24 2a3c 14e9 6cbc cc56 ac3c
000000b0: 3cc3 30bd 2fbc a33c 8ab7 d03b 61f6 54bc
000000c0: 2cbf 953c 7cdd bebc 8776 a0bc 706b b83c
000000d0: 8d57 ed3c b9a4 17bd f167 eabc 9d07 243d
000000e0: b260 d03c 0d70 0cbd 16a0 203c d9e0 2cbc
000000f0: 1081 553d 37c9 03bd cddb ec3b 87fb 99bc
00000100: bb84 9dbc 75f0 b73c 12a8 26bd db91 1abd
00000110: 6bba f2bc e20a 6dbc 2ef3 723c 620b af3c
00000120: ba50 e53c 7b43 ed3c d676 6339 9d26 8abc
00000130: b5c9 1abd 44e3 54bc d029 0cbc 4c6c 643d
00000140: 383e 24bd 2124 b1b9 fce7 773d 2ee1 50bc
00000150: c400 87bc 7f2d fe3a 1d79 64bc 3fa3 dabc
00000160: 070f 093d b14d 403c 742f 74bc 1235 763c
00000170: 54d0 ba3a e290 6e3c a519 b6bc fa94 ff3c
00000180: 8b99 0f3d 6e91 ee3c 56c7 b3bc 7267 893c
00000190: 323b 1c3d a651 20bc ed63 42bd 1a18 da3c
000001a0: 7f80 02bc 435f 98bc 8ca1 0bbd 76f9 373c
000001b0: 6f2f d03c c4d4 8d3c fa4e 3b3d 76a1 5b3c
000001c0: a858 a23c 7131 0bbd 2bc5 1b3b eb95 ca3c
000001d0: f8b3 fd3c 360a 043a 46fd a23c a82f 73bd
000001e0: dfa8 4bbc e8d1 1ebd 4c69 1b3d 5984 323d
000001f0: 500c 6e3c 443b 3dbc 8b05 07bc 78a6 183c
00000200: 00af 3bbc ba14 80bb 95dd 1bbd 5bdf 963c
00000210: fb18 ad3a d15e 09bd 3f09 033c 2403 2b3b
00000220: 13f0 a23c 4195 4dbc e4bc 48ba 7775 013b
00000230: 711b f3bc 3fa6 393d b30e 403a e117 37bb
00000240: 0071 2abc a276 a23c d7e3 ac3c 42fb dd3c
00000250: 603c 083d 6a5a d2bc 7a99 633d ec1b a6bc
00000260: 14d6 1ebd b78f 28bd efbc 153d 4791 9cbc
00000270: 50f1 50bd 318b 9fbc 66fb f53b bc11 dd3c
00000280: 05cd e0bc bc8f aebb 2e9b 60bd 677a a63c
00000290: 810c 30bd b878 07bd 28bb e4bc b3b0 2fbc
000002a0: 97fd ea3b b767 1b3d ad2a 163c 4bd4 54bd
000002b0: 49c9 bc3c 5308 63bc c8ab 46bc 0e02 1eb9
000002c0: f9d6 67bc 40ea 2fbd dc6f 503c 4860 c93c
000002d0: d43b 403c 85af 443d 0080 eb39 c83b 5cbc
000002e0: 4d74 003b cfca d6bb 6a60 8fbc 96f2 d83b
000002f0: cb95 07bd 6150 c43c 15a5 20bc c50d bebc
00000300: e2b0 ebbc 7699 1b3d 9b57 87bc 0e06 363c
00000310: cf1d 4fbc 03b5 35bd 517d e7bc ff0d 163d
00000320: 06b4 103d 6ac4 18bd 9fa3 24bd c2a9 e43c
00000330: 43e1 493d 142b 163d eb50 993c 2f85 87bc
00000340: 8ae6 543b 3e00 11bd 645f 08bd 836f 2bbd
00000350: 6f3e c3bc 2ac6 b03c 64ff 4d3c 86c9 17bb
00000360: e2bd 06bc 0bfb 02bc 6dec 9a3c 17af d03c
00000370: 8f09 ca3c e164 b73c 77fe 12bc 35ef 0d3d
00000380: d890 05bd 36b8 8bbc a2a7 f43c f897 4a3c
00000390: 17ff 413d fb3e 763d f66b 203d a7a5 873b
000003a0: 5d6e 14bc 6472 ed3b 6fd2 ebbc 39f4 81bc
000003b0: a5f6 833c c3ee ef3c 7ea9 2abc f930 3bbc
000003c0: 823a cb3c bf8e e2bc 69ce b7bb 7e8c c53c
000003d0: 72b2 ef3c 6370 9cbc 7121 b1bc be69 1c3d
000003e0: 541d 943c 1332 703b 3119 82bc 0be0 86bc
000003f0: 7d50 83bd 3689 7f3b 8d56 93bd be43 25bd
-0.018821938 -0.0011033728 -0.018745022 0.009730719 0.0010048882 -0.003384159 0.014134502 0.031331833
0.011776923 -0.024195274 -0.014737761 -0.036285657 0.01214352 -0.030838473 -0.0004106289 0.04523679
-0.038062792 -0.039325282 -0.030275567 -0.0014894621 0.040411673 -0.0041476325 0.022634685 -0.004621584
-0.021952495 -0.050676208 0.0015492972 -0.023438072 0.039116398 -0.01885734 -0.05006006 0.0068959943
0.028876016 -0.012031923 0.02584646 -0.013448363 0.0400238 0.019056708 0.0020389112 -0.009121476
-0.0053362623 0.010384792 -0.014459867 0.021037482 -0.04315494 0.019987194 0.006369536 -0.012998194
0.018279634 -0.023298971 -0.019587768 0.022512168 0.028972412 -0.037022326 -0.028614016 0.040046323
0.025436733 -0.034286547 0.009803792 -0.010551655 0.052125037 -0.032174315 0.0072283507 -0.018796695
-0.01922833 0.022453526 -0.040687628 -0.037736755 -0.029629907 -0.014467927 0.014828486 0.021367732
0.027992595 0.028962841 0.00021692677 -0.016864115 -0.03779002 -0.0129936375 -0.008554891 0.055767342
-0.0400984 -0.0003378699 0.060523972 -0.0127489995 -0.016479857 0.0019392221 -0.013944891 -0.02668917
0.033461597 0.011737273 -0.014903892 0.015027301 0.001425276 0.01456091 -0.022229025 0.031198967
0.03505854 0.02912208 -0.021945637 0.01677296 0.03814239 -0.0097850915 -0.047458578 0.02662282
-0.007965206 -0.018600112 -0.03408961 0.01122891 0.025413243 0.017313369 0.045729615 0.0134051945
0.019817665 -0.033982698 0.0023768644 0.02472969 0.030969605 0.0005036922 0.01989616 -0.05937162
-0.012430399 -0.0387744 0.037942216 0.043583248 0.014529303 -0.011549775 -0.008241068 0.009317033
-0.0114552975 -0.003908721 -0.038053114 0.018417051 0.0013206297 -0.03353769 0.00799781 0.0026094401
0.019889867 -0.012547792 -0.00076575414 0.0019753852 -0.029676171 0.04532456 0.0007326409 -0.0027937817
-0.010402918 0.01983196 0.021104736 0.027097348 0.033260703 -0.025677878 0.05556629 -0.020276986
-0.03877838 -0.041152682 0.036557134 -0.019112242 -0.051011384 -0.019475551 0.0075067757 0.026985995
-0.02744151 -0.005327193 -0.05483549 0.020322038 -0.042980675 -0.03307411 -0.027921274 -0.010723281
0.0071713435 0.037940707 0.009165448 -0.05196027 0.023045199 -0.013856965 -0.012125917 -0.0001506882
-0.014150375 -0.042948008 0.012721982 0.024582043 0.011733014 0.04801895 0.0004491806 -0.013441987
0.001960057 -0.0065549384 -0.017502028 0.0066207154 -0.033101838 0.023964109 -0.009804984 -0.023199925
-0.028770868 0.03798815 -0.016521266 0.011109842 -0.012641384 -0.04436208 -0.028257998 0.03663444
0.035327934 -0.03729669 -0.040195104 0.027912978 0.049287092 0.036662176 0.018715343 -0.016543
0.0032486045 -0.03540062 -0.033294097 -0.041854393 -0.023833482 0.021578867 0.012573097 -0.0023160889
-0.0082239825 -0.007994424 0.018911565 0.025474114 0.024662761 0.02238697 -0.008971802 0.034651954
-0.032608837 -0.017055612 0.02986509 0.012365334 0.047362413 0.060118657 0.03916546 0.0041396203
-0.009059516 0.0072463024 -0.028786866 -0.015863525 0.01610882 0.029288655 -0.010416387 -0.01142525
0.024808172 -0.027655957 -0.005609323 0.024114843 0.029259894 -0.019096559 -0.021622391 0.03818678
0.018080391 0.003665094 -0.015881153 -0.016464254 -0.06411836 0.0038991696 -0.071942426 -0.040347807

iconv.0.bias f4 [5]
00000000: b6f0 583d 2e2d 533d d717 6f3d 56fd 253d
00000010: 932d f93d
0.052963935 0.05155676 0.058372345 0.040524803 0.12166896

iconv.2.weight f4 [25, 5, 13, 5, 5]
00000000: 1819 04bd b145 84bd 3f36 7fbd 0075 8fbd
00000010: 82d3 86bc d708 44bc c809 aebd 3c9f d8bd
00000020: 05e3 c5bd c7d8 c5bd a468 f93c 77ab 05bd
00000030: 18af 94bd 2eb8 cfbd e22a 8cbd 4f42 083c
00000040: 93c4 efbc c5fd 45bc 2591 cdbd 654d 74bd
00000050: 922f cc3c 6ad9 d3bd d416 29bd cacd fcbd
00000060: 712d bebb 21f7 12bc a3a7 57bd 57ce 9abd
00000070: f3f7 ccbd 8560 22bd aa93 13bd 1c15 9dbd
00000080: 8172 a6bd 67b1 85bd 83a7 adbd ba80 3cbc
00000090: d0a1 dcbb e405 63bd ef67 9abd adb5 98bd
000000a0: 854f 9d3b 28ac 56bd 57fa d9bc 96bf 07be
000000b0: b345 54bd 170c e83b c0dc abbd a0e3 62bd
000000c0: 3d20 f6bd 635a 66bc 146b 2fbd ef04 1cbd
000000d0: 65f3 dfbd 91b5 e8bd a0b1 11bd 4d5d 4bbc
000000e0: c746 6dbd 6903 abbd 8eb8 84bd 957c 4dbd
000000f0: a45d 66bc 59a3 4ebd 0714 5bbd 6b32 99bd
00000100: 5a90 77bd f44c f7bb e996 46bd 75be b0bc
00000110: 0779 c6bd 6526 67bd 09f5 ac3b 7d70 cfbd
00000120: bc7c 91bd 4be5 bebd 872d babc 9acc 0fbd
00000130: 67ee 6bbd e409 9cbd ce72 c9bd 7cdf 06bd
00000140: 6fa3 11bd 3f51 81bd efba d0bd ef95 b0bd
00000150: a460 2ebd 3bfa 713c c9af 18bd 5f01 6cbd
00000160: 2955 6abd 24d0 0fbd 7f8c 02bc bbea 5cbd
00000170: 65e3 d0bc 5582 e9bd 4d3a 1fbd 32af 7a3c
00000180: f683 b5bd c678 3cbd 4038 b8bd c8d1 d1bc
00000190: 0345 61bc c32c c2bd fe74 c9bd ca82 a8bd
000001a0: 25bf 90bc ae7e 27bd 81be c1bd e78d d3bd
000001b0: bb79 6fbd 5d3d 1dbd b8a5 823c e774 6ebd
000001c0: a5fd ccbd 7e2c 95bd d04e 8dbd 856e ecbc
000001d0: 3c94 56bd 7202 95bb 382f bebd 5a3f 2abd
000001e0: 0f96 8fbc 88eb bdbd 2037 cdbc 3a77 07be
000001f0: 041f 0fbd 47df 11bd 84b8 cfbd c2e0 c9bd
00000200: 3db3 a9bd 09cf d4bc 526e d0bc 74d9 96bd
00000210: 1fea b6bd 9fd0 83bd a0ed 08bd 63d7 5c3c
00000220: 282a 83bd 3572 95bd 1420 8bbd bcbb d3bc
00000230: 8fc3 543a f68a eabc 9fd8 b7bc cdeb cebd
00000240: 0f33 61bd 6b56 7fbb c181 cbbd f369 49bd
00000250: 4ad3 e4bd 3887 f2bc f316 a3bc fe98 9abd
00000260: 9959 f5bd efcb 7ebd 709d ebbc 7109 c3bc
00000270: abfc acbd ce97 b5bd 4b59 37bd 39be c5bc
00000280: 6a9d d7bc 7175 68bd de08 b5bd 1568 a1bd
00000290: 9045 5fbd 3aa9 4ebc e463 91bc 181d 853c
000002a0: 96f5 84bd 8889 3bbd d51e b83c bef7 d5bd
000002b0: cd70 6fbd 0aa9 dabd a98f 6ebc 0d57 12bc
000002c0: d0fb 89bd cdfd 9dbd 5437 b5bd 8d23 26bd
000002d0: 9bc2 07bc 72a8 8bbd 99b4 c9bd 2eda 80bd
000002e0: d1f2 4bbd e389 23bd 1bee a5bd ef63 d6bd
000002f0: 3b8e b1bd d2b5 83bd 30a8 f8bc 272b 17bd
00000300: 3549 253c a429 b1bd 4ea2 b7bd 85ce 00bc
00000310: d565 e2bd b31c 52bd 3a74 c6bd 7ce9 32bd
00000320: 85e3 7cbc e7e9 a3bd 568e 98bd 1b1f a8bd
00000330: 92c3 3dbd 3153 d2bc 9bb1 8cbd 963f 82bd
00000340: 16d8 26bd 71bc 93bd 1878 193b ff82 83bd
00000350: 87b9 ccbd 4989 b8bd a31a 3abd fdf5 eebc
00000360: 297c a2bc f6ef 0e36 6f13 aabd e440 6cbd
00000370: 74ad 2dbc 01f6 b9bd 28c8 90bd 59e7 bcbd
00000380: 2c53 35bd 4d0a 1cbb 842c 9abd 5e99 b5bd
00000390: 6ec0 a3bd 0ab1 79bd 7f53 13bc 14fb 84bd
000003a0: f294 24bd a240 86bd d83b 61bd f05a abbb
000003b0: 3be1 71bd 5c64 a9bd a0c1 4fbd 721e b5bd
000003c0: 1a8c 12bd a359 79bc c5f2 84bc 8df6 96bd
000003d0: 6187 92bd 21bb 49bc 9275 92bd d20d 90bd
000003e0: 749f fdbd 04c4 80bd e177 47bd 2f4b afbd
000003f0: a523 8bbd 164c c2bd ebcb 40bd abcd 3cbb
-0.032250494 -0.06458605 -0.062307592 -0.07004738 -0.016458277 -0.011964998 -0.084979594 -0.105772465
-0.09662441 -0.096604876 0.030445404 -0.032634225 -0.07259959 -0.10142551 -0.06844117 0.00831659
-0.029268539 -0.012084429 -0.1003745 -0.05964412 0.024925027 -0.10344203 -0.041281536 -0.12343939
-0.005803757 -0.008970053 -0.052650105 -0.075588875 -0.1000823 -0.03964283 -0.036029495 -0.07670042
-0.08127309 -0.065279774 -0.08479216 -0.0115053 -0.0067331567 -0.05542554 -0.07539355 -0.07456527
0.004800739 -0.052410275 -0.02660863 -0.13256678 -0.051824283 0.0070815193 -0.08391714 -0.05539286
-0.12017868 -0.014059636 -0.042826727 -0.038090643 -0.10935096 -0.11362756 -0.035569787 -0.012412381
-0.057928827 -0.0835026 -0.064805135 -0.05016764 -0.014060412 -0.05044875 -0.053485896 -0.074803196
-0.0604404 -0.0075470153 -0.048483763 -0.021575192 -0.09691053 -0.0564331 0.005278234 -0.10128877
-0.07103869 -0.09321078 -0.022726787 -0.035107233 -0.057600405 -0.07619074 -0.098363504 -0.032927975
-0.035556253 -0.063143246 -0.10191905 -0.086223476 -0.042572632 0.014769132 -0.037277017 -0.057618495
-0.05721012 -0.035110608 -0.007968067 -0.053934794 -0.025499055 -0.11401812 -0.03887396 0.015300559
-0.0886306 -0.046013616 -0.08995104 -0.025612727 -0.013749364 -0.09481194 -0.098367676 -0.08228071
-0.01766927 -0.040892296 -0.09460164 -0.103298 -0.0584657 -0.0383886 0.015948161 -0.058216956
-0.10009316 -0.07283877 -0.06899798 -0.028861294 -0.05238746 -0.0045474106 -0.0928635 -0.041564323
-0.017527608 -0.0927344 -0.0250507 -0.13229075 -0.03494169 -0.035613324 -0.101426154 -0.09857322
-0.0828614 -0.025977628 -0.02544323 -0.07365695 -0.08931374 -0.06436276 -0.03342974 0.013479087
-0.06404525 -0.07297174 -0.06793228 -0.025846355 0.00081162987 -0.028630715 -0.02244216 -0.10103569
-0.054980334 -0.0038961421 -0.09936858 -0.049173307 -0.11173113 -0.029605493 -0.019908404 -0.07548712
-0.1197998 -0.062206205 -0.028761595 -0.023808213 -0.0844663 -0.08866845 -0.04476289 -0.024138557
-0.026320178 -0.056752626 -0.08839582 -0.0788118 -0.0545097 -0.012613589 -0.017747827 0.016249225
-0.06492154 -0.045785457 0.02247564 -0.10447644 -0.058457185 -0.10676773 -0.014560618 -0.008931887
-0.067374825 -0.07714424 -0.088484436 -0.040561248 -0.008286144 -0.06819238 -0.098488994 -0.062916145
-0.049792115 -0.03992642 -0.08102056 -0.104682796 -0.086697064 -0.06431164 -0.030353636 -0.036906388
0.010088255 -0.086505204 -0.08966504 -0.007861738 -0.11054579 -0.0512969 -0.09690137 -0.0436797
-0.015435104 -0.08003598 -0.074490234 -0.08209058 -0.04632909 -0.025674434 -0.06869813 -0.06359784
-0.04073342 -0.07213677 0.0023417529 -0.0642147 -0.09996324 -0.0901056 -0.04543556 -0.02917003
-0.019834595 2.1299325e-06 -0.08304488 -0.057679072 -0.0106004365 -0.09080125 -0.07069427 -0.092238136
-0.044268772 -0.002380985 -0.07528022 -0.08867143 -0.079956874 -0.060959853 -0.008992075 -0.06493202
-0.040181108 -0.065552965 -0.054988712 -0.0052293465 -0.059052687 -0.08271095 -0.050721765 -0.088436976
-0.035778143 -0.015219125 -0.016229043 -0.073712446 -0.07154728 -0.012312681 -0.07151331 -0.07033886
-0.12383929 -0.06287387 -0.04869831 -0.08559262 -0.06793908 -0.094871685 -0.04706947 -0.002880911

iconv.2.bias f4 [25]
00000000: c4c3 9bbd 6a0e 20bd 87bd 86bd 7e03 09be
00000010: c8c8 82bd ef2f 94bc ad1b 9bbd 95d5 00bc
00000020: 10eb 21bd ec01 9a3c 38f8 5abd 9ee5 adbd
00000030: a48a 14bd c438 85bd 6902 5fbd 1b4b e9bd
00000040: a7f3 a8bd 295c 9fbd 4aad bcbd 205b c6bd
00000050: c2e7 95bd d8bd 61bd 15ae b4bc d5c0 fabc
00000060: 71cb 1fbe
-0.07605699 -0.039076246 -0.06579118 -0.13380238 -0.06385952 -0.018089263 -0.07573638 -0.007863422
-0.039530814 0.018799745 -0.053459376 -0.08491062 -0.03626503 -0.06504968 -0.054445658 -0.11391278
-0.08249598 -0.0778125 -0.0921274 -0.096853495 -0.07319595 -0.05511269 -0.022055665 -0.030609528
-0.1560495

tconv.0.weight f4 [100, 25, 1, 1, 1]
00000000: 2707 473d b8d5 7d3e 2466 ef3d 2668 5ebe
00000010: 1e2c 293e 9177 cdbd b3fd 143e 09f6 82bd
00000020: 597f 05be af30 38bd e4a9 9a3d 6a39 fb3d
00000030: be00 6abe f5c4 7ebe ce49 7dbd 1bd3 0bbd
00000040: a2e9 213e 2bec 23be a17c 213d 3c17 b83d
00000050: d209 20bd aef1 bf3d f07d 603c b7de 1abe
00000060: 3137 e0bd fb5e 983d bbac 083e e325 a93d
00000070: 266c 293d dd69 1cbc 8e0a 103e d143 70be
00000080: 42dd d7bc e905 043d ebab 39bb 5d95 a0bd
00000090: 3ced 08be 442a 35be 8c97 8fbd 9e29 443c
000000a0: ae80 88bc fe93 4c3d 0821 08be 1f0c 49bd
000000b0: 13f4 50be a4c1 1cbe 3455 453e a866 03be
000000c0: 1486 70bd f97f 94bd 405b 763e 4f37 6bbd
000000d0: 1741 26bd 0275 993e f779 e0bc 7495 893e
000000e0: 7c10 113e 1734 693e 2c4d 1dbd b4a7 b73d
000000f0: d80f a9bd 5c6f 283e 52e0 a0bd a9d9 643d
00000100: 84c5 fc3c a68f 8a3e 30d0 2ebd 32b5 97bc
00000110: af92 55be 857d 8fbd 2fdd 81bd f349 063e
00000120: c5b1 debd f6b5 1c3d 2db4 993e ef0a 6c3d
00000130: 4dad 67ba e2cb 543e 5e65 b7bd f444 0fbe
00000140: b072 333c 7ff2 e53d 835b c7bd fff6 51be
00000150: acde 48be db43 cb3d 1ccc e1bc f8fc 853d
00000160: ae8e d2bd b991 ecbc 79f0 833d 5a16 613c
00000170: 8c5a 773d 2889 903d c271 7d3e fd7d 503e
00000180: 0ca5 4e3e f45d 0e3d af66 3d3d 302f 4e3e
00000190: ba51 11be 0d67 6a3e 5531 7d3e 3b99 98bb
000001a0: 70e7 523d 766e aabd a5ca ff3d f83f 41be
000001b0: 1f4c 9f3d da8d 13be 23a3 66be a9ca a0bd
000001c0: 145b aabd ae46 62be de4a 703c 8c29 bb3d
000001d0: 1ebb c23d 1161 4d3c 378d 6d3e b25d 5c3d
000001e0: 726a 90bd 0af3 3cba 036b b13d f677 113e
000001f0: a9ed 27bb 6e06 053e 3700 17be 1dbe a43d
00000200: 6c1c 6fbe 5fa0 903d bf0c 98bc 4abb ddbd
00000210: a6e5 4cbe baa7 4ebe 2bbf 89bd 014d 82be
00000220: fd90 be3d 8c87 babc c939 8ebe 237c c93d
00000230: 5cf2 16bd 0c6e dd3d 583f 64be 92d9 5c3e
00000240: 7e11 5f3e 1412 17bd 5710 63bd 778c 82be
00000250: bf64 88be 6d3b abbd f689 65be 4756 043d
00000260: ef11 3a3c 0fab 06be 2e2f f93d f560 37be
00000270: d9a0 cfbb 2380 84bd 6bd7 83bb 0caa 85be
00000280: a4e6 6a3d 0f50 2bbd bbd1 843c a892 0a3e
00000290: cecd f5bd 241c df3d cbe2 e4bd 94a4 babc
000002a0: 98da eabc dbdc 5abe 0146 7bbe dc2c 993d
000002b0: 3c98 8bbd 47b2 373e 0726 56bd a0ff ce3d
000002c0: 7434 293e cc84 1a3e c17e cebd 0c1f 44be
000002d0: 8b20 9ebc 059a 76be 4a76 45bd 2b76 8138
000002e0: e8a9 08bf da68 943d 810e 2dbe e457 813c
000002f0: 35c2 47be c95d 1abc 54f8 423d 3a14 b8bd
00000300: d02e 223d 05e6 dfbd 9c6d 813d 9901 923e
00000310: a6ed 763e f003 2d3e e328 e13c edf5 09be
00000320: 028b 303e e147 713d e0f1 103e 4026 09be
00000330: d6be 7b3e a149 d3bd 559a afbc d5b3 3e3c
00000340: 3841 843d a09f 763d aba2 503c 9ec1 d73c
00000350: 516a 5bbe dff5 ea3c 086b c43d 7eb8 093e
00000360: bd46 4e3e 579a 4c3f fa01 b53e 89f6 db3d
00000370: 4947 93bc dc42 163e 1571 fa3d 9bba 9d3d
00000380: 3a3c 453e b56b 3d3e e05e 133e 3d98 d3bd
00000390: 76fd 60be f331 3e3d 9a1e 99bc 474f c1bd
000003a0: c046 2dbd a20e 14be 7b8a 6abe 9c6f ad3d
000003b0: 13b9 043e 99ca a9bd d630 0dbe 1ec4 14bd
000003c0: 9dec 423d 7264 eebc 9296 c53c cd08 1dbe
000003d0: 7acc 153e db8f c4bd 1494 d53d c14b 293e
000003e0: b5f5 47bd 094a 05be f56f 533e fbe5 c5bc
000003f0: 878e 473d 551c 70bd 7d53 013e 1f0e 243d
0.048590805 0.24788558 0.11689404 -0.21719417 0.16520736 -0.10032571 0.14549904 -0.06394584
-0.1303686 -0.044968303 0.07551935 0.1226681 -0.22851846 -0.2487982 -0.061837964 -0.034136873
0.1581178 -0.1600806 0.039425496 0.089888066 -0.039071865 0.093722686 0.013701901 -0.15124021
-0.10948027 0.07439991 0.13347141 0.082591794 0.041362904 -0.009546724 0.14066526 -0.2346337
-0.026350621 0.0322322 -0.002833123 -0.07840989 -0.13371748 -0.17691904 -0.07011327 0.011972813
-0.016662922 0.049945824 -0.1329385 -0.049083825 -0.20405607 -0.15308243 0.19270784 -0.12832129
-0.058721617 -0.07250971 0.24058247 -0.057425793 -0.04058942 0.29972082 -0.027401907 0.26871836
0.14166445 0.22773777 -0.038403675 0.08967534 -0.08254975 0.1644873 -0.07855286 0.05587164
0.030855902 0.2706272 -0.04267901 -0.018519018 -0.20856737 -0.07006363 -0.063410155 0.13114147
-0.108737506 0.03825947 0.30020276 0.057627615 -0.00088377745 0.207809 -0.08954881 -0.13991147
0.010952637 0.11227893 -0.09734251 -0.20504378 -0.19616193 0.09925052 -0.027563147 0.065423906
-0.1028112 -0.02887808 0.06442351 0.013738239 0.060389087 0.070574105 0.24750426 0.2036056
0.20180148 0.03475757 0.046240505 0.20135188 -0.14191332 0.22890873 0.2472585 -0.0046569384
0.051490247 -0.0832185 0.12489823 -0.18872058 0.07778191 -0.14409581 -0.22523169 -0.07851154
-0.08318153 -0.22097275 0.014666287 0.09138784 0.09508346 0.0125353495 0.231984 0.053800292
-0.07051553 -0.00072078465 0.08662989 0.14205918 -0.0025623834 0.12990734 -0.14746176 0.08044074
-0.23350686 0.07061838 -0.018560765 -0.10826738 -0.20009479 -0.2018117 -0.067259155 -0.25449374
0.09304998 -0.022769712 -0.27778462 0.0983813 -0.036852226 0.108120054 -0.22289789 0.21567371
0.21784016 -0.036882475 -0.055435505 -0.2549779 -0.26639363 -0.08360944 -0.22415909 0.032308843
0.011356815 -0.13151191 0.12167202 -0.1790808 -0.006336313 -0.06469753 -0.0040234826 -0.26106298
0.057348862 -0.041824397 0.016213289 0.13532507 -0.12002145 0.10894039 -0.1117607 -0.022783555
-0.028668687 -0.21373312 -0.24538423 0.07479259 -0.06816146 0.17939101 -0.05228236 0.1010735
0.16523916 0.1508972 -0.1008277 -0.19152468 -0.019302627 -0.24082191 -0.048208512 6.17321e-05
-0.53384256 0.07246561 -0.16900064 0.01578898 -0.19507678 -0.009421774 0.047600105 -0.08988233
0.039595425 -0.109325446 0.063197345 0.28516844 0.24114093 0.16896033 0.027485317 -0.1347272
0.17240527 0.05890644 0.14154768 -0.13393497 0.24584517 -0.10316778 -0.021435896 0.011639555
0.06457752 0.060210824 0.012734096 0.026337441 -0.21427275 0.028681694 0.09590727 0.13449284
0.20144172 0.79923004 0.3535307 0.10740382 -0.017978327 0.14673942 0.122286 0.07701608
0.19261256 0.18498118 0.1439166 -0.103317715 -0.21971688 0.046434354 -0.01869135 -0.09438949
-0.0423038 -0.14458707 -0.22904389 0.084685534 0.12961225 -0.082905956 -0.1378816 -0.036319844
0.047588933 -0.02910063 0.02411965 -0.15335388 0.14628783 -0.09597751 0.10428634 0.16532804
-0.04881831 -0.13016523 0.20648177 -0.024157515 0.04871991 -0.05862077 0.12629505 0.04005253

tconv.0.bias f4 [100]
00000000: eedc 68bc a28d 2a3e 8243 25be f877 76bc
00000010: 2c04 6c3e 0496 8a3e 1164 1ebe 9046 f53d
00000020: 9f70 19bd 43e5 233d 0edd a3bd 8500 983d
00000030: 018a 443d a921 fcbd 5f6a 5a3c 9eef ccbc
00000040: b6a2 15bd 16b4 95bd 308f 63bd b028 3e3e
00000050: e79e efbd 3054 df3d 1ca9 263e 920b 35ba
00000060: 3398 c33d c31a 443d f7d4 c53d cc25 793e
00000070: 0fb6 743e fa20 cdbd 86c9 3a3e 7bc7 0d3d
00000080: 9ce0 923e a79d 8dbe 92e4 96b9 7c78 1fbd
00000090: 4b32 1ebe c320 22bd 2b2f 56bc 365e b3bd
000000a0: 4d63 883e 134c eb3d dc10 d7bd f4d8 e6bc
000000b0: 2b56 ccbd 4ae0 91bc e5dd 313d f96e a53d
000000c0: c30e d63d df46 15be 57b8 42bd 0b2b 18be
000000d0: 34c5 77be 2398 3ebe 4e26 e53d af77 4dbe
000000e0: f7ac 323e d26f 1f3e f073 373d 67ad 853d
000000f0: d827 3f3d 7a9a 7c3d db75 163c 6a26 81b9
00000100: ed6c 50be 6257 1d3e a537 21be ec26 823e
00000110: cf8f 8bbe 5849 783d e75a 18be 1ba8 f3bd
00000120: 1002 863b 61b4 31be 861b d4bd 0ed3 753e
00000130: bd12 e6bc 9886 3b3c bc77 5bbd e896 a3bd
00000140: 3804 683d a596 e23d ce2e d2bc 16b9 c43d
00000150: 02cd 70be 3ddf a13d d602 713e a882 bd3d
00000160: 9f08 edbd 4ae4 923d f2ae 3e3e 4e70 453e
00000170: efd1 20bd 7a36 0cbe a255 30bd fa0b 8c3d
00000180: bfdd 1fbe f9e2 ac3e c61f a13d b2db 05be
-0.01421283 0.16655591 -0.16139033 -0.015043251 0.23048466 0.27067578 -0.1546786 0.11976349
-0.03746092 0.040013563 -0.08001147 0.07421974 0.047983173 -0.12311108 0.013331025 -0.025016602
-0.036532126 -0.07309739 -0.055556476 0.18570209 -0.1170023 0.10904729 0.16275448 -0.0006906326
0.09550514 0.047877084 0.096597604 0.24330825 0.23897575 -0.100160554 0.18240938 0.034614068
0.28686988 -0.27659342 -0.00028780528 -0.038933262 -0.15448873 -0.039582025 -0.013072769 -0.08758204
0.2663826 0.114891194 -0.105012625 -0.028179623 -0.09977373 -0.017807145 0.043424506 0.08077807
0.10452034 -0.14577816 -0.04753908 -0.1486017 -0.24196321 -0.18612723 0.11188947 -0.20065187
0.17448793 0.1557 0.0447883 0.065272145 0.046668857 0.061670758 0.009183372 -0.00024633418
-0.20354052 0.15365365 -0.15743883 0.2542032 -0.27258155 0.06061682 -0.14878426 -0.11897298
0.0040896013 -0.17353965 -0.10356812 0.24006292 -0.028085107 0.011445664 -0.053580984 -0.079877675
0.05664465 0.110638894 -0.025657084 0.09605615 -0.23515704 0.079039074 0.23536238 0.09253436
-0.1157391 0.07172449 0.18621424 0.19281122 -0.03926271 -0.13692656 -0.043050416 0.06838222
-0.15611933 0.33766916 0.078673884 -0.13072088

tconv.2.weight f4 [100, 1, 13, 1, 1]
00000000: e56c f8bd e233 6abe 9549 873e 4a54 39be
00000010: 1058 d3bd 89aa 2ebe c5a6 8cbd 0faa 163e
00000020: bedf 13be 0ac5 c03d 2854 df3d 1b47 463e
00000030: 5367 7dbe 8718 283d b1b9 8d3d cab1 50be
00000040: 124b 65be 3478 85be d273 573e 482c 103e
00000050: c5fe 233e be8e 293c 8e37 0b3e aa60 803e
00000060: dbde 943c eef6 ad3d 914f 08bc 5c79 a0be
00000070: a8a6 f13d 8d67 97be 0c88 f03c d787 96be
00000080: 5953 1fbe d2e5 15bd ac3c 1a3d d1b4 f23c
00000090: 90bf b5be dde4 24be 47e7 81be 41a9 0bbe
000000a0: 3c42 28bd 40ba 503d 4f22 9a3d 499c 463d
000000b0: 26f5 98be 08a3 383e 9cc8 083d a705 373e
000000c0: 1551 133e 6adf 53be 47d7 933d 7cd1 94bc
000000d0: 037a 86be d0b1 6cbd 6c19 86be a3b0 c7bd
000000e0: cdd9 76be 3752 79bb 9c7d 613e fa07 94bd
000000f0: f0b1 56bc 27ed 57be 3816 313e f320 ce3c
00000100: 0580 87be 0b1c 293e 160d 923e 13f5 66bd
00000110: cead 9b3e a636 533d 484c aa3e f4e0 9fbd
00000120: 8485 9d3d 4a7c 873e b2ed a63d de98 543e
00000130: 467d 0d3e 1422 0ebe afc5 a8be 60df 1b3d
00000140: 47d8 e6bd 9600 a2be d282 253d e751 68be
00000150: cfa3 903d 244b 91be f354 92be d4b5 3abe
00000160: ff7e 8f3d 2bfa dbbd 79b5 1dbe b8f7 7b3e
00000170: 71df 183d 7804 863e 732a 6e3e a727 a43e
00000180: d2ce 2cbe 406c 9bbe 8a38 10be 9edb 133e
00000190: 719e dd3d 2b6f dcbd b1c0 c9be 818a d8be
000001a0: aeb0 913d 82c6 aebd fcee 193e fcc9 6b3e
000001b0: e552 513e b8b9 0fbd 1173 ba3e 2312 88bd
000001c0: 65f5 743e beff 193e 345b febd 7d66 f73d
000001d0: e46e 503e d183 7dbe 4ff5 40be e8d6 01be
000001e0: 49e0 553e 0cc7 98bd 9992 6c3d 80bf 0b3d
000001f0: 705e 0fbe fcc3 84be 855a 193d 4280 7dbe
00000200: 7d8d a6bb 8c04 343e 1fde bdbe 7be4 bd3c
00000210: 4b65 b6be 16f9 6ebe 439d f13d 9265 0cbe
00000220: 38fe 20be 7da4 c6bd d8b4 6b3d 9c65 93be
00000230: 2af3 5d3d 3a9c 9bbe 689c 13be 6902 f2bd
00000240: a5f8 663d 6d3d 3e3d 18bf b83d 2040 413e
00000250: e929 963d d3ca 323e 32a9 3abd 50f4 24bb
00000260: b8ed ea3d ed58 bcbd 09a6 eebd d42a 63be
00000270: 1f21 8b3e a626 423e bfaa 2bbe 29f8 223e
00000280: 1c09 783e e7c5 7a3e 8c27 573e 3fc9 833e
00000290: 9244 6dbe b2b5 c73d d4c4 0a3e 1977 31be
000002a0: 58af 35bd 4b94 4fbd 07f5 a3bc d037 64bd
000002b0: 3d9a 183c 60d9 803e 49ab 6c3c 59bc 7ebe
000002c0: d441 0bbe fc6d a3bc a2f5 64be ad96 f13d
000002d0: a54c 5cbe ba89 06be 1c19 19be 7936 79be
000002e0: 9a15 8cbe 1482 d9bc 769c 8bbe 2d0f 5abe
000002f0: 2556 3d3e a656 ba3c 5b37 12bd fcad a03d
00000300: 4246 1b3e b193 24bd 41dc 3dbe 351f 72be
00000310: ed9d 5d3e 5e61 74be 5d48 03be b8cf dd3c
00000320: 4abb dbbd 9dd3 473e 14cb 90be 4b4c 29bd
00000330: 17b5 2fbe 768d 5b3e eab3 c73d 6024 babc
00000340: 06a2 873e 3436 543e 23f6 013e 3142 b2bd
00000350: d374 2f3e 186c 483e ca20 e33d 4348 583c
00000360: 644e ca3d 1f61 c8bd 9858 63be 061a 67be
00000370: 73ed 40be 5f79 eebd bfc0 243e cf75 4fbe
00000380: 7514 33bd 4d6b 153e 09ca 27bd b463 18be
00000390: 91ac b83d 8c18 c2bd 4ba3 e73d 0efd 73be
000003a0: e8cc 913e b754 5a3d b9f0 86be 01e5 91be
000003b0: 7910 233e 0dea 4e3d b78f 91be 1bd1 6abe
000003c0: 9b40 75be cf30 40bb ecf2 80be c790 49bd
000003d0: 38e7 ebbd 8a2b 26be eb74 1cbe 78cc 0dbe
000003e0: a7d6 cf3d 8dc8 313d c78e 9c3e 2c9e 993e
000003f0: ef73 15bc c90c a73e ea9e e2bd 1f76 d23d
-0.12130145 -0.22871354 0.26423326 -0.1809856 -0.10319531 -0.17057241 -0.06867746 0.1471331
-0.1444082 0.09412582 0.109047234 0.19363062 -0.24746446 0.041039016 0.069201834 -0.20380321
-0.22391918 -0.2606827 0.21040276 0.14079392 0.16015156 0.010348974 0.13595411 0.2507375
0.018172672 0.08494364 -0.008319751 -0.3134259 0.11799365 -0.2957119 0.029361747 -0.29400513
-0.15559138 -0.036596127 0.037655517 0.029627236 -0.35497713 -0.1610293 -0.25371763 -0.13638784
-0.04107879 0.05095887 0.07526075 0.04848889 -0.29874533 0.18030941 0.03339444 0.1787325
0.14386399 -0.20690694 0.07218795 -0.018166296 -0.26264963 -0.057786763 -0.2619127 -0.09750488
-0.24106522 -0.0038043389 0.22020572 -0.07228084 -0.013103947 -0.2108656 0.17293632 0.025162196
-0.2646486 0.16514604 0.2852561 -0.056386065 0.3040604 0.05156579 0.33261323 -0.07806578
0.07691482 0.26462013 0.081508055 0.20761439 0.1381732 -0.13880187 -0.3296332 0.038054824
-0.112717204 -0.31641072 0.040407963 -0.22687493 0.07062494 -0.2837764 -0.28580436 -0.18233424
0.070066445 -0.10741075 -0.15401258 0.24606216 0.037322465 0.26175284 0.2325838 0.32061502
-0.1687577 -0.30356026 -0.14084068 0.14439246 0.10821236 -0.10763391 -0.39404824 -0.4229317
0.07113777 -0.08533956 0.15032572 0.2302627 0.20441778 -0.035089225 0.36415914 -0.06644084
0.23921736 0.15038964 -0.12419739 0.12080095 0.20354801 -0.24757315 -0.18843578 -0.12679636
0.20886339 -0.0745984 0.057756994 0.034118176 -0.14000869 -0.25930774 0.03743984 -0.24755958
-0.0050827847 0.1757986 -0.37083527 0.023180237 -0.35624155 -0.23337206 0.117975734 -0.13710621
-0.15721977 -0.096993424 0.057545513 -0.2878846 0.054186977 -0.3039263 -0.14415133 -0.11816866
0.05638947 0.0464453 0.09020823 0.18872118 0.073322125 0.17460184 -0.045571513 -0.0025170036
0.114711225 -0.09196649 -0.116527624 -0.22184306 0.27173707 0.18960056 -0.16764353 0.15914978
0.24222225 0.24489556 0.2101118 0.25739476 -0.23170689 0.097514525 0.13551646 -0.17330588
-0.044356674 -0.050678533 -0.0200143 -0.05571729 0.009314117 0.25165844 0.014445134 -0.24876536
-0.1359933 -0.019949906 -0.22359326 0.11796317 -0.21513613 -0.13138476 -0.14950985 -0.24337186
-0.2736023 -0.026551284 -0.27267808 -0.21294852 0.18489893 0.022746395 -0.035697322 0.07845685
0.1516352 -0.040179912 -0.18541051 -0.23644717 0.21642275 -0.23865268 -0.12820573 0.027076587
-0.10729082 0.19514318 -0.28279936 -0.041332524 -0.17158924 0.21440682 0.09751113 -0.022722423
0.26490802 0.20723802 0.1269155 -0.08704031 0.17134409 0.19572484 0.110902384 0.013200822
0.09878233 -0.097841494 -0.22201765 -0.22568521 -0.1884058 -0.116442434 0.16089152 -0.20259784
-0.04372068 0.14591713 -0.04096416 -0.14881784 0.090172894 -0.09477338 0.113104425 -0.23827001
0.28476644 0.053303447 -0.26355532 -0.2849503 0.15924253 0.050516177 -0.28429958 -0.2293133
-0.23950426 -0.0029325967 -0.25185335 -0.049210336 -0.11518711 -0.16227546 -0.15278976 -0.1384753
0.101483636 0.04340415 0.3057768 0.30003488 -0.009121879 0.32626942 -0.11065467 0.10276436

tconv.2.bias f4 [100]
00000000: d902 9abe cc4b ae3e be7d e43d 6c19 9f3e
00000010: 59d9 85be fd80 c93e 6af6 793e 28f2 23be
00000020: 29e0 ac3e 22b9 e43c a031 5d3e ba89 473e
00000030: 5a22 833e f1ed 133e 1efc abbd ea7f bd3d
00000040: f470 5b3e d143 6dbe cf90 333d 6910 c63e
00000050: ec0e 2d3e bdce 58be 71c8 c6bd 3cda b03d
00000060: 6901 9b3e 6f3e 803e 732f 89be bdb1 a8be
00000070: cdba 903e c53e 60be 7a19 69be 279d 983e
00000080: 8b44 b5be b99e e53d 42da b2be 34d9 babe
00000090: 9118 b03d ecba 953e 8e58 aabe 01a7 063d
000000a0: df33 05be 154b 61be 6562 a13e 0e12 a03e
000000b0: e7cf d53d 6d64 16be d205 12bd a135 cd3d
000000c0: c4d4 883d cb8e 8ebe 99e4 83be 7416 27be
000000d0: 2512 3ebe 6f42 a13e e6c0 973e d197 b6be
000000e0: e369 eabd f04c b43c 6702 8639 3d14 a9be
000000f0: 2f4a e5bc 15f7 543e 205b adbe baee 493e
00000100: a5dc 5b3e 91d2 d93c ff8a 46be dff8 c5be
00000110: 701c b7be 9c1f d13d 2786 21be abdd 803e
00000120: b069 fa3d 342a 0dbc 76ac ddbd 7307 a2be
00000130: 0962 a0be 0ab7 88be c4a8 5b3e 4b53 67bd
00000140: ff0a 2ebe ac01 33be bf88 7f3e b68f ab3e
00000150: 2de3 d1bd 5839 35be 0533 843e d61b 0bbd
00000160: 72cc 8fbe 9e34 4e3e 2c18 f63d 1c1b 17be
00000170: c6f8 293e bb5e a5be c9f9 343e 29ca 05be
00000180: eda7 653e 51d3 883e cbbd 99be 3b14 c4be
-0.30080298 0.34042203 0.11156796 0.31074083 -0.26142386 0.39356223 0.24410406 -0.16010344
0.3376477 0.02792031 0.21600962 0.19486132 0.25612146 0.14446236 -0.08397697 0.09252913
0.21429807 -0.23170401 0.043839272 0.38684395 0.16900223 -0.21172614 -0.097062 0.08635375
0.30274513 0.25047633 -0.26794013 -0.32948104 0.28267518 -0.21898945 -0.22763625 0.29807398
-0.35403857 0.112119146 -0.34932142 -0.36493838 0.08598436 0.29244173 -0.33270687 0.03287411
-0.13008069 -0.22001298 0.31520382 0.31263775 0.10440045 -0.14686747 -0.035650082 0.100199945
0.06681207 -0.27843317 -0.25760344 -0.16317159 -0.18561609 0.31495997 0.29639357 -0.35662702
-0.114459775 0.022009343 0.00025560262 -0.33023253 -0.027989475 0.2079738 -0.33858585 0.19719973
0.21470888 0.026589664 -0.1938896 -0.38666436 -0.35763884 0.10211107 -0.15773831 0.2516912
0.122271895 -0.008616019 -0.1082391 -0.31646308 -0.31324795 -0.26702148 0.21451098 -0.05647592
-0.16996382 -0.17481107 0.24954508 0.3350808 -0.102484085 -0.17697656 0.25820175 -0.033962093
-0.28085667 0.2013726 0.12016329 -0.14756435 0.16598806 -0.32298836 0.1767341 -0.13065399
0.2242734 0.26723722 -0.30027613 -0.38296685

tconv.4.weight f4 [25, 100, 1, 1, 1]
00000000: c71f bd3d b6c9 20be e013 9cbd 9265 05bd
00000010: af34 793d 5463 89bd 4f81 90bd d60e 433e
00000020: 6fcd 1ebe aed3 a43d 4e0b 28be 584d 7c3d
00000030: acf5 93bd 89b7 bcbd e7b3 d73d 381d 29bd
00000040: d488 02be d779 563d f1bd e1bc b5de 03be
00000050: 022e d4bd bc70 2f3c 17c8 48bd f137 babd
00000060: c9b9 2bbe 4d05 fdbd 4dbd 003c 6fe4 273e
00000070: 930c 16be ed3a 053d 42b5 2a3e 9a93 1cbe
00000080: cd4c 093e b042 1ebe 1ab1 183d af52 163d
00000090: 5be7 b1bd a82f 58bd 1ba7 d73d f18c d0bd
000000a0: 9f62 333e ef50 083e e638 1f3d 5cae 9dbd
000000b0: 190e d4bd aef9 043e 4bb5 0f3e 7a2d 47be
000000c0: b63c dd3d cf65 063e aedc 243e 73d5 aa3c
000000d0: a40a cc3d 02ad 04be ae8a d4bd c962 9cbc
000000e0: 7fd0 3bbd 784d 0cbe 277a 41bd d9c9 e33d
000000f0: 512f 673d 68ca adbd 3eed 403e 4213 82bd
00000100: 760d 9dbd b24b 76bc 03a5 6a3d 24ea 313e
00000110: f05b 113e c6c9 b8bd e780 1c3e cf23 dbbd
00000120: 0974 eebd b8fd 913d 0d2e 203e 4d8b 473e
00000130: 9cb3 de3d b6c2 3c3e 1f76 31bc a1e7 cf3c
00000140: 4655 3e3e ab1c 593d 1b30 2abe 1392 edbc
00000150: cdce f43c 6570 e43b 1763 04bd d92f 283e
00000160: ac5a 1d3e 3a52 b5bc 558b 98bd 3f21 0f3e
00000170: 2a3f 17be 6225 063e dce9 e8bd f9cb 403e
00000180: cf4a d1bd d0e4 40be be85 173e 9283 c73d
00000190: bc7e d13d e2ef 47be b304 4fbe 4e70 bbbd
000001a0: 43d9 003e 1c5e 52bd 089f 11be c28a 3e3e
000001b0: a915 7cbd f9ea 6e3d 8029 01be 2106 c13b
000001c0: 6427 9ebd e497 89bd 1968 003d 52aa bfbd
000001d0: 461a 24be e37f 9c3d f233 c9bc 51e0 83bd
000001e0: d7c5 fdbd 9092 5a3e 98b4 02be 3cb2 05be
000001f0: cde0 9abd bc89 4dbe d701 c1bd b4c6 253e
00000200: d6f9 0fbe e0c3 1c3e a0e9 3f3d d856 15be
00000210: 2dc7 113e 2ea3 05be e618 8d3d 3796 373d
00000220: 9159 0ebd cdc1 d4bd 05e3 413e a2cf 313d
00000230: 7f5a 7e3c 6a1b e5bb d0bd 41be 66d1 40bd
00000240: ca9c 56be f567 303d 6e47 98bc 5d26 cabd
00000250: a0c3 ac3d 45a8 113e 3db8 da3d cc79 fd3d
00000260: 9d17 d73d a385 75bd 25bf cabd 6922 073e
00000270: 1b95 bfbd fd8e cebd 7815 69bc d607 493e
00000280: f005 88bd e358 e1bd f0b8 123d e4b4 b5bc
00000290: 389e 35be 3b22 123d 4999 7cbd 5fc8 133e
000002a0: 67a9 fa3c 1edc 23be a39d ca3c 3238 1fbe
000002b0: bbec 2b3e 407a 893c 3175 4b3e d8cc 883d
000002c0: dcb4 363e 7817 123e 5844 40be d68b 393e
000002d0: 4e07 143e cf03 4d3e 28f0 29be 4da7 44be
000002e0: 6017 1f3e d375 fb3d c3b6 57be 464f 27bc
000002f0: 4ed6 213e c71c a6bd 5416 e0bd 9fab 213e
00000300: ebe4 19be a048 633d a980 c4bd fc3f ed3c
00000310: 8025 32be 5bf3 cfbc 4934 cd3d 388a 663d
00000320: 77cd 1c3e 411c c6bd f156 bfbd 0d7f 8bbd
00000330: 863f b83d 73d1 03be 32bd c7bd f563 d33d
00000340: 0120 00be 25fc b33c ea5d 55bd 4499 3cbd
00000350: 794a e3bd c868 acbd 5275 113e 138d 0abd
00000360: 4853 16be 2a4d ba3d 33f7 08be b666 6abd
00000370: 483e 02be ff38 aa3d e723 0dbd 4de2 3fbe
00000380: 6b22 6ebd 11aa 47be 7e16 87bc 89b6 a63d
00000390: c738 c0bd ef65 9f3c ff6c e73d c98f 0ebe
000003a0: 7abc 323d 9378 a2bd 06b0 a93c 397f 3d3e
000003b0: 1aff a1bc ac6b 0cbe c29e 2a3e adbf 47bd
000003c0: 7392 f43d 9aa9 a5bc d55b 2bbe 10b2 d7bd
000003d0: 8d76 2fbe c9c3 183d 9ad6 87bb aa71 79bd
000003e0: 86b9 253e 90fd 06bb 55b9 f83d b30d e2bb
000003f0: 6916 123d 9e29 2ebe 044b f9bd 6d8b 283e
0.09234577 -0.15701947 -0.07620978 -0.032567568 0.06084126 -0.067083985 -0.07055914 0.19048628
-0.15508054 0.08048187 -0.16410562 0.0615972 -0.072245926 -0.09214694 0.105323605 -0.04128763
-0.12747508 0.05236229 -0.027556391 -0.12877925 -0.10360338 0.01070803 -0.049018946 -0.09092701
-0.1677009 -0.12354527 0.007857633 0.16395734 -0.14653234 0.0325269 0.16670707 -0.1529068
0.13408203 -0.15455127 0.037278272 0.036699947 -0.08686706 -0.052779824 0.1052992 -0.101831324
0.1751809 0.13312124 0.038872622 -0.07699272 -0.103542514 0.1298587 0.14034002 -0.19450942
0.10802595 0.13124774 0.16099808 0.020853734 0.09962967 -0.12956622 -0.103780136 -0.019090073
-0.045853134 -0.13701427 -0.047235634 0.11122484 0.05644161 -0.084858716 0.188405 -0.063513294
-0.07668583 -0.015032696 0.057286274 0.17374474 0.14195228 -0.0902286 0.15283547 -0.10700189
-0.11643226 0.07128471 0.15642567 0.19486733 0.108741015 0.18433651 -0.010831385 0.025379004
0.18587217 0.053005856 -0.16619913 -0.029000318 0.029883767 0.0069714063 -0.032321062 0.16424502
0.1536662 -0.022133935 -0.074484505 0.13977526 -0.14770189 0.13100198 -0.1137273 0.1882781
-0.10219347 -0.18837285 0.14797112 0.09741892 0.10229251 -0.19525102 -0.20216636 -0.0915228
0.12582879 -0.05135928 -0.14220822 0.1860762 -0.061544094 0.058329556 -0.12613487 0.005890623
-0.07722357 -0.06718424 0.031349275 -0.09358658 -0.16025648 0.0764158 -0.024560902 -0.06439269
-0.123912506 0.21344972 -0.12764204 -0.13056272 -0.075624086 -0.20072073 -0.09424179 0.1618908
-0.14060149 0.15309095 0.04685366 -0.1458391 0.14236136 -0.1305053 0.068895146 0.04482099
-0.034753386 -0.10388527 0.18934257 0.043410905 0.015524506 -0.0069917934 -0.18920064 -0.047074698
-0.20958248 0.04306789 -0.018588748 -0.098705985 0.0843575 0.14224346 0.10679672 0.123767465
0.10502551 -0.0599419 -0.09899739 0.1319672 -0.093546115 -0.100858666 -0.01422631 0.19631895
-0.066417575 -0.11003282 0.0358209 -0.022180982 -0.17736137 0.035677176 -0.06166962 0.14431904
0.030598355 -0.16001937 0.02473337 -0.1554878 0.16789524 0.016781926 0.19868924 0.06679696
0.1784243 0.14266765 -0.18776071 0.1811975 0.14455912 0.20020984 -0.16595519 -0.19204445
0.1553626 0.122783326 -0.21065812 -0.010211771 0.15804407 -0.081109576 -0.10941759 0.15788125
-0.15028732 0.055489182 -0.095948525 0.028961174 -0.17397118 -0.025384596 0.10019738 0.05628416
0.15312754 -0.09673358 -0.09342755 -0.068113424 0.08996491 -0.12872867 -0.09752883 0.103218
-0.12512209 0.021970818 -0.052091517 -0.046044603 -0.11098189 -0.08418423 0.1420491 -0.033825945
-0.14680207 0.09096749 -0.13375549 -0.05722686 -0.12719071 0.083116524 -0.034458067 -0.1873867
-0.058138292 -0.19498469 -0.016490217 0.081402846 -0.093858294 0.019457785 0.11300086 -0.13922037
0.043636777 -0.07933154 0.020713817 0.18505563 -0.019774962 -0.13712949 0.16662124 -0.04876678
0.119419955 -0.020222474 -0.1673425 -0.105320096 -0.17135067 0.03729609 -0.0041454555 -0.060899414
0.16184053 -0.0020597912 0.12144724 -0.0068986057 0.035665903 -0.17008063 -0.12172511 0.16459437

tconv.4.bias f4 [25]
00000000: d97f 17be c928 0dbe 54e5 3cbe c273 00be
00000010: 1ab7 06be d9c8 2cbc 23e1 9cbd 0744 34bd
00000020: ffd1 07be 5f07 f6bc 991a 4b3c b6eb 3bbe
00000030: c0c8 36bd d2eb 95bd 3f1a 02bd 6e06 8abd
00000040: ef91 38bd 8080 ddbc da08 5ebe 70f6 31be
00000050: d64a 15be ff41 32be bf76 3dbe b362 06be
00000060: fbae cebd
-0.14794864 -0.1378509 -0.18446857 -0.12544158 -0.13155785 -0.010545933 -0.07660129 -0.04401019
-0.13263701 -0.030032812 0.012396478 -0.18351635 -0.044625044 -0.0732037 -0.03176331 -0.067395076
-0.045061048 -0.027038813 -0.21683064 -0.17379165 -0.14579329 -0.17407988 -0.1850233 -0.13123588
-0.100919686

oconv.0.weight f4 [100, 25, 1, 1, 1]
00000000: 50f3 b13c 2464 843c d34e a7be 937b 96bd
00000010: bc20 61be bffb 45bd 30f7 1cbe 74a7 5fbe
00000020: 6fde ee3c e9d5 96be b453 afbd 9c6f 7fbd
00000030: 38dc 89be e2ba 1fbe 5b85 ca3c 1ec2 4dbc
00000040: 4832 b4bd b675 9d3d b3ff 38be ce64 6fbe
00000050: 9d37 043d 68f9 8dbe f018 90be 3787 093e
00000060: 018c 8a3c 767e 0d3e 9839 b53c 6c9d 583e
00000070: 0d0e 4d3e 48af 5f3d 53e7 4cbe 38b1 44bc
00000080: 3733 9abd 975f bc3d 3040 2abe f46e 77bd
00000090: 6f35 803e cb40 313e fa41 f13c 7b36 48be
000000a0: 511b 36bd 31bd da3d 135b b5bd 10a3 10bd
000000b0: d520 b3bc 3b4f 203e 3f86 78bd dd7e 833e
000000c0: 6948 333e 1574 a8bc 72ff 2f3e 41db 6e3e
000000d0: 5934 343d 4c8d 883e 53bb 2cbe b824 54be
000000e0: 6c9e 623e f020 053e 36e1 513e a945 03be
000000f0: df0b ab3c 0713 373e 047f ab3d 1191 0dbc
00000100: 25b1 ab3d 1810 b93e c379 3b3d 48fb 11be
00000110: da4a b4bd 0b45 a2bd 5106 e83d d123 3d3e
00000120: 05b4 bf3e 7841 653e 1bc4 21be edc4 0fbd
00000130: 16c1 5d3e e14a 3ebe 133e 54bd 2fcd 0bbe
00000140: 5fcf a1bd a3a9 c5bd fbc7 1dbe f0bf 143d
00000150: 8e67 17bb 5f1f 6cbe 08ed 1bbe e6cb 72bd
00000160: 3eb5 d8bd ae03 efbd bc03 5ebe e30f c4bd
00000170: c82f aabd b2fd 8ebd 11dd cfbd 7e62 81be
00000180: 53e0 013e fcf5 463e 523b c4bd 12f1 1bbd
00000190: 7661 323e c42d 44be bb0f aeba 48f2 203d
000001a0: 2b85 e9bd f787 65be f8f1 e6bd 8e95 9f3e
000001b0: 9e4f 0fbe 50c7 61be 893b 06be 6bfd adbe
000001c0: f48e a8bd 5c36 403d 4c78 51bd 81ee 183d
000001d0: 18ec ea3d 3c24 f2bd 1a04 d4be 3f5b 7c3b
000001e0: 02e7 393e fe20 ccbd b00e 8dbe dccd 683c
000001f0: 328a 9abd 537b 2eba 2612 afbd cb78 003d
00000200: f7d2 9b3d 657c 15be 714d 993d 52fa 4ebe
00000210: 779e 35be c20a 3b3e f7ea 453d 8426 513e
00000220: 7110 02be 68d9 92bd 390d c13b a7d2 92bc
00000230: 0db1 0c3e 0bdf 233c 9f7f 22bd 7ffa d23d
00000240: ad11 f23d fccb 193e bdc9 163d fd31 f6bd
00000250: 8cea dc3d cf52 debd 4d0c 083e 05aa 81bd
00000260: cae2 433e 7e75 1d3e dbb8 1ebe df58 1f3a
00000270: fcbd 0dbe 1989 443b f0c3 593e 31be 8e3e
00000280: 9f1b 033d 48d8 3d3e fca8 7d3a 6430 05bd
00000290: 5f63 87bd e0c5 edbd ae3d 50be c815 b33d
000002a0: 6277 40be b8ad ffbc 53ad efbc d73a 22be
000002b0: 0521 66bd 3705 d13d bc29 093d f9ab 0b3e
000002c0: b2b0 1a3e 5363 49be 12eb 493d 35b0 983d
000002d0: 0303 1d3d 1ca2 86bc fe14 3b3e 3f53 163e
000002e0: 9c14 c3bd 4661 23bd fca6 913d 00c6 b33c
000002f0: 17e6 953e 6ee5 6dbe 0df3 2f3c 6761 8fbc
00000300: 0bd7 18bb 3d20 3ebe b830 78be 4c2f 783d
00000310: f58a a03d 0f41 3cbd 49e2 5c3e e199 cf3d
00000320: f69c 363e 3b2a f4bd 1f01 983d 68bb ff3d
00000330: 3cca 03be 6eb8 1ebd cdd8 173e 9d72 233d
00000340: ceb8 f7bc 2d91 1dbe 0ab1 0ebe 833f f23d
00000350: f022 ae3c 62dc 013e b5df 49bd cd79 1a3e
00000360: 835c 963d 69af 8dbd 0425 16be 690a 253d
00000370: f750 233d 36a7 cabd a16a 93bd dee9 fbbd
00000380: eb5e 8fbc be76 283e a34c adbc a20e 053f
00000390: a2c9 a7bd 20e1 92bd 7fd7 49bf 35b6 c83d
000003a0: a584 a1be 5edb 813e c2ee 73be 6c00 42be
000003b0: ab23 12bd ad5a c23d 44d9 d23e 454b e3be
000003c0: 2049 a3bd 4503 8abe b09b 91bd 1665 853e
000003d0: 0cc1 17bd d2c9 c5be 3e44 4abf 35eb 72bd
000003e0: 6415 7a3e 0389 c6be 5318 f6bd 19af 2fbd
000003f0: 2c32 203d daa9 c5bd 28d0 503d c729 4bbe
0.021722466 0.016161032 -0.32677326 -0.07347789 -0.21985143 -0.048335787 -0.1532867 -0.21841222
0.029158799 -0.29460075 -0.08560887 -0.0623623 -0.26925826 -0.15598634 0.024721792 -0.012558488
-0.08798653 0.07688467 -0.18066292 -0.23378298 0.0322796 -0.27729344 -0.28144026 0.13430487
0.016912462 0.13817772 0.02212219 0.21153802 0.20024891 0.05461052 -0.20010118 -0.012005143
-0.075293 0.0919792 -0.16626048 -0.060408548 0.25040767 0.17309873 0.029450405 -0.19552033
-0.044459645 0.10680617 -0.08855262 -0.03531176 -0.021866241 0.15655224 -0.060674902 0.25682727
0.17508091 -0.020563165 0.17187288 0.23325826 0.043995235 0.266703 -0.16868334 -0.20717132
0.22130746 0.13000846 0.20496067 -0.12819542 0.020879684 0.17878352 0.08373836 -0.008640544
0.08383397 0.3614509 0.045770418 -0.14256012 -0.08803339 -0.07923325 0.1132933 0.18470694
0.37442032 0.22388256 -0.15797465 -0.035099912 0.21655688 -0.18583252 -0.05181701 -0.1365249
-0.07900881 -0.09651496 -0.15408318 0.03631586 -0.0023102495 -0.23058842 -0.15227139 -0.059276484
-0.10581444 -0.11670624 -0.21681112 -0.09573343 -0.08309895 -0.06981982 -0.10149587 -0.25270456
0.12683229 0.19429773 -0.09581627 -0.0380717 0.17419991 -0.19158083 -0.0013279835 0.039293557
-0.11402353 -0.22415148 -0.112766206 0.3116879 -0.13995215 -0.22048688 -0.13108648 -0.33982405
-0.08230391 0.04692684 -0.051140115 0.03733683 0.114708126 -0.118233174 -0.4140938 0.0038506535
0.18154529 -0.0996723 -0.27550268 0.014209237 -0.0754589 -0.000665595 -0.085483834 0.031365197
0.07608598 -0.14598234 0.07485474 -0.20212677 -0.17736231 0.18265823 0.048319783 0.20424849
-0.12701584 -0.07170373 0.005891469 -0.017922712 0.13739415 0.010001908 -0.03967249 0.103016846
0.11819778 0.1501922 0.036813486 -0.12021253 0.10786924 -0.10855638 0.13285942 -0.06331257
0.19129482 0.15376851 -0.15500204 0.00060786115 -0.13842005 0.0029988943 0.2126615 0.2787948
0.032008763 0.18539536 0.0009676365 -0.032516852 -0.066107504 -0.11610007 -0.20336029 0.08744389
-0.18795541 -0.031210765 -0.029257452 -0.15842758 -0.056183834 0.10206073 0.033487067 0.13639821
0.15106466 -0.19666795 0.049296446 0.07455484 0.03833295 -0.016434722 0.18269727 0.14680193
-0.09525415 -0.03988769 0.07111928 0.021945 0.29277107 -0.23232052 0.0107391 -0.0175025
-0.0023321535 -0.18566985 -0.24237335 0.06059198 0.07839004 -0.045960482 0.21570696 0.10136772
0.17833313 -0.11922117 0.07422089 0.12486917 -0.12870115 -0.038750105 0.14828797 0.039904226
-0.030239489 -0.15387411 -0.13934723 0.1182852 0.021256894 0.12681726 -0.04928561 0.15085526
0.07341864 -0.069182225 -0.14662558 0.04029313 0.039872136 -0.09895174 -0.07198072 -0.12300466
-0.017501315 0.16451547 -0.021154707 0.5197545 -0.08192755 -0.071718454 -0.78844446 0.09800378
-0.31546512 0.25362676 -0.23821548 -0.18945473 -0.035678547 0.09489951 0.41181386 -0.44393364
-0.07972932 -0.2695562 -0.07109773 0.26053685 -0.03704934 -0.3863054 -0.7901038 -0.059306342
0.24422222 -0.38776407 -0.12016358 -0.042891596 0.039110348 -0.09651537 0.050979763 -0.19840156

oconv.0.bias f4 [100]
00000000: fb5e b23d a10d 06be d870 68be 85f7 b13d
00000010: e393 c63d 1f6c 1b3e 2c17 b6bd 0075 a43c
00000020: 7863 9fbe 59b4 513e ea32 2bbe 76a7 23be
00000030: 3e42 033e d2ab 45be 4f7a 813d 8925 60be
00000040: 2ae0 a3be c5c6 c0bc ef39 15bd dae6 adbe
00000050: f72d 113d 2d3f a8bd c765 25be ecd3 d73d
00000060: ca09 85be 139e 51bc 6adb 143e 81d5 44bc
00000070: 2671 fbbc 26ee 7d3e 728e 813e d039 dbbc
00000080: 0c1d c0bd 6504 a73d a9c0 82be ba12 8bbd
00000090: 26d8 ee3d b096 c93c 65e6 5abe 4f3d 0fbe
000000a0: 9525 b13d 7a44 973c 0eb4 58be 74a9 f9bd
000000b0: 898e 82bd 64ca 8abe 28d2 4cbd 8032 993d
000000c0: e2f8 123e 8994 c63d ea2e 473d bfad aa3d
000000d0: 5a0d 3b3e c459 44be 41a7 b8bd 7555 ed3d
000000e0: 3ef4 e23c 4651 3e3e dbdb 6dbd 0470 2c3d
000000f0: 405d 013e 8a98 21be c171 f73d e21a 43be
00000100: 2f95 59bd 672f 333e 5e58 053d 0a50 443d
00000110: ad29 9cbd 65cf 1f3d e2f6 08bc 2824 073e
00000120: 0ff7 03be d7b0 813e 40ac f0bc 554d b6bd
00000130: e59d 883d cc59 2d3c 928a 673d e48a 803b
00000140: c681 dabd 6f1d 443e 1bf4 603e 962c e73c
00000150: a395 293e 9747 523d cacb 3b3e 4b85 10be
00000160: 98f9 0d3e 9c80 01be 6cb2 fc3d 9d59 5ebe
00000170: bb0a e6bd f24c 0b3e 5847 b3bd 7dfa 64be
00000180: 61ee 813d 212a 903c 1b7d 5cbd f0de 303e
0.08709522 -0.13091137 -0.22699296 0.08689789 0.09696176 0.15177964 -0.088911384 0.020075321
-0.31130576 0.20478953 -0.16718641 -0.1598185 0.12818238 -0.19303825 0.06322157 -0.21889319
-0.3200696 -0.02353228 -0.036432203 -0.33965188 0.035444226 -0.08215175 -0.16152106 0.10538468
-0.2598403 -0.0127940355 0.14536825 -0.012013794 -0.030693602 0.24797878 0.2530399 -0.026760966
-0.0938054 0.08155135 -0.25537613 -0.06790681 0.11662321 0.024607986 -0.21376951 -0.13988231
0.08649746 0.01846527 -0.21162435 -0.12190524 -0.06374843 -0.27107537 -0.050005108 0.07480335
0.14352754 0.096962996 0.048628725 0.08333921 0.18266812 -0.19174868 -0.09016276 0.11588565
0.027704354 0.18585691 -0.058071 0.042099014 0.12633228 -0.15780845 0.12082244 -0.19053224
-0.05312079 0.17498551 0.032554977 0.047927894 -0.076251365 0.039016146 -0.008359643 0.13197386
-0.12887214 0.2533023 -0.02937901 -0.08901469 0.06670741 0.010580491 0.056528635 0.003922807
-0.106692836 0.19151853 0.21968119 0.028219502 0.16560988 0.051337805 0.18339458 -0.14113347
0.13864744 -0.12646717 0.12338719 -0.21713872 -0.112325154 0.13603571 -0.08753842 -0.22361179
0.06344295 0.017598214 -0.053830247 0.17272544
