src/music/model_weights.pth (torch, 166616 bytes, 14 tensors)

conv.0.weight f4 [3, 1, 5, 9]
0.33955002 -0.02622927 -0.026643874 0.1636543 0.1666349 0.15177095 -0.14637493 0.07895436
0.14408433 0.02489656 -0.10355927 -0.04922258 0.04548461 0.002301143 0.03893549 0.13973708
0.095600165 -0.042118356 0.0959093 -0.112592824 -0.1988368 -0.22914837 -0.0047618137 -0.045456912
0.068933055 0.08384598 -0.014613778 0.0036912335 -0.17844608 -0.24662784 -0.2298026 -0.22467677
0.015742414 -0.03809014 0.17842202 0.32302323 0.1285335 -0.29238787 -0.5869965 -0.58271855
-0.44854373 -0.23170419 0.009586145 0.08618963 0.39262906 0.13403435 0.042213008 -0.034696177
-0.3057944 -0.10942269 0.05023378 0.18242127 -0.074009046 0.054843575 0.038272694 -0.11315404
0.050541837 -0.067614436 0.016922483 0.17503497 0.07450874 0.03737378 0.26812726 0.09603714
-0.02619666 -0.06870609 -0.2954079 -0.23790467 0.10869715 0.2155533 0.15992492 0.103495024
0.15457536 0.08096725 0.067700416 -0.31501865 -0.096914604 0.14591755 -0.020708237 -0.0016512114
0.06652713 -0.073728986 -0.11879723 -0.061261166 -0.33893138 -0.25092033 -0.113117464 0.03531838
-0.0141033465 0.11536861 0.09194847 -0.04179506 -0.069353536 0.05927731 0.056724716 0.08785379
-0.08545567 -0.57050633 -0.9770133 0.12462466 -0.12588422 -0.0012186627 -0.0034368949 0.12482165
0.08078422 -0.27737433 -0.7274156 -1.0605226 0.099938385 -0.006673817 -0.03434342 -0.052420385
0.17420849 0.09510083 -0.36723173 -0.86881214 -1.1412834 -0.13952748 0.05227813 0.2338107
0.02279622 0.12907076 -0.07905799 -0.60152936 -1.0651549 -1.325913 -0.13697962 -0.098404296
0.28113478 0.28341138 0.072828345 -0.051019125 -0.7434018 -1.1928073 -1.5853438
00000000: 80d9 ad3e c4de d6bc 4144 dabc fe94 273e
00000010: 57a2 2a3e d869 1b3e 4fe3 15be d3b2 a13d
00000020: d88a 133e dff3 cb3c e216 d4bd 9e9d 49bd
00000030: 124e 3a3d c6ce 163b d27a 1f3d 3d17 0f3e
00000040: 05ca c33d 4c84 2cbd 186c c43d 1197 e6bd
00000050: e09b 4bbe dfa5 6abe fd08 9cbb 0731 3abd
00000060: c62c 8d3d 71b7 ab3d a16e 6fbc 9fe8 713b
00000070: 92ba 36be 028c 7cbe 5f51 6bbe ab11 66be
00000080: 3cf6 803c 6804 1cbd 43b4 363e 4d63 a53e
00000090: 499e 033e ddb3 95be 6745 16bf 0b2d 15bf
000000a0: 86a7 e5be dd43 6dbe 350f 1d3c 3084 b03d
000000b0: ad06 c93e 4d40 093e 8ce7 2c3d 941d 0ebd
000000c0: 1591 9cbe 0119 e0bd f0c1 4d3d a4cc 3a3e
000000d0: 0e92 97bd a8a3 603d d4c3 1c3d 4ebd e7bd
000000e0: f504 4f3d 7079 8abd 05a1 8a3c 5e3c 333e
000000f0: 0a98 983d 4015 193d fa47 893e 1faf c43d
00000100: 619a d6bc c7b5 8cbd b43f 97be 489d 73be
00000110: 9d9c de3d 01ba 5c3e 5cc3 233e 33f5 d33d
00000120: 0149 1e3e 28d2 a53d 84a6 8a3d 204a a1be
00000130: 2a7b c6bd 696b 153e 52a4 a9bc 766d d8ba
00000140: 603f 883d 39ff 96bd f64b f3bd fdec 7abd
00000150: 6a88 adbe a178 80be 21aa e7bd 01aa 103d
00000160: b911 67bc 6146 ec3d 7b4f bc3d 4c31 2bbd
00000170: 3a09 8ebd c4cc 723d 2d58 683d b0ec b33d
00000180: 6203 afbd b40c 12bf 8b1d 7abf 373b ff3d
00000190: cbe7 00be 89bb 9fba 873d 61bb 7ea2 ff3d
000001a0: 3272 a53d 0204 8ebe e937 3abf 34bf 87bf
000001b0: 7fac cc3d 09b0 dabb b0ab 0cbd c2b6 56bd
000001c0: b663 323e 39c4 c23d cc05 bcbe 796a 5ebf
000001d0: 9315 92bf 4be0 0ebe 9821 563d 126c 6f3e
000001e0: 23bf ba3c 202b 043e 28e9 a1bd d4fd 19bf
000001f0: ff56 88bf 84b7 a9bf 6344 0cbe 3188 c9bd
00000200: e6f0 8f3e 4c1b 913e 0727 953d 6ef9 50bd
00000210: 954f 3ebf e9ad 98bf 8cec cabf

conv.0.bias f4 [3]
0.23581207 -0.3549497 0.15525846
00000000: b878 713e f8bb b5be 13fc 1e3e

conv.2.weight f4 [9, 3, 5, 5]
0.06177977 0.16166075 0.054470755 0.025075343 0.08703789 -0.08806064 0.012091407 0.013719191
-0.12573259 -0.0036128652 0.19940896 -0.011320726 -0.06253505 -0.04810059 0.100239396 0.15187114
0.017584153 -0.15469746 -0.39771184 0.005738618 0.2709693 0.13131839 -0.13772497 -0.44003567
-0.06716678 -0.032416143 -0.053560458 0.22498004 -0.26006636 -0.32020226 -0.12433774 -0.13851978
0.3407732 -0.4068451 -0.3530517 -0.1704188 -0.39812875 0.30556446 -0.22817877 -0.44931728
-0.09472915 -0.27487895 0.1379244 -0.26728046 -0.29928353 -0.05519993 -0.15784997 0.25566196
-0.13638447 -0.35566187 0.06971295 0.40920556 -0.07178588 -0.20895518 0.13648944 0.17556182
0.21070002 -0.079137415 -0.08140582 0.031233752 0.13629103 0.20877995 0.05575537 0.086747035
0.030773897 -0.061786793 0.053753626 0.031185536 0.13073397 -0.03737814 -0.25917664 0.05863944
0.1349227 0.20209694 0.015966661 0.0016030706 0.16289178 0.02038497 0.056811403 0.08649313
0.1476334 0.07116048 0.11465795 0.13577889 0.10327907 0.008241223 0.096715406 0.11109764
0.13836776 0.17012931 0.019942932 0.09563124 0.099750884 0.0030819294 -0.021749541 0.049285434
0.14535752 0.048337203 -0.037681166 0.07413523 -0.019131463 -0.13231114 -0.06179469 -0.08052029
-0.15701452 -0.09351617 -0.09437081 -0.035426386 -0.16390029 -0.18089838 -0.0526866 -0.08712974
-0.22552328 -0.3462633 -0.22250657 -0.14297546 -0.27395228 -0.12337665 -0.2965621 -0.05930975
-0.022374343 -0.16295867 -0.2264525 -0.18897916 -0.05507561 -0.019786576 -0.019008165 0.011907036
0.08066038 -0.025335735 0.039738603 -0.09897918 0.118765175 0.12729058 -0.0017545924 0.023956915
0.08537777 0.09238196 0.04273266 0.052671112 0.051830325 -0.062629536 0.118080534 0.1365869
0.13852127 -0.0619558 -0.10116783 0.09904909 0.109840535 0.039141424 0.11950745 0.15791483
0.044582337 -0.2961957 0.027329026 0.07779791 0.17210196 -0.08610066 -0.17097993 0.09715041
0.13927323 0.051689256 -0.025049742 -0.21549678 -0.014570173 0.014448564 0.045182746 0.06276097
-0.12329242 0.094201684 -0.022479618 0.2210451 0.08703526 -0.053164884 0.094765745 -0.11845521
-0.18231544 -0.083988115 -0.18376578 -0.114295125 -0.029436447 -0.0971973 -0.17607085 -0.1942746
-0.123722166 -0.16753556 -0.16361661 -0.054050073 -0.18114729 -0.14366692 -0.111170456 -0.12930448
-0.17349343 -0.09870133 -0.074130654 -0.06493452 -0.13254912 -0.119331114 -0.15945494 -0.12510398
-0.46585992 -0.45840734 0.039212473 -0.07223625 -0.010540668 -0.387244 -0.2964729 0.00061470416
0.04373994 -0.061346177 -0.21516037 -0.1599241 -0.057196286 0.047673292 0.06903968 -0.086188614
-0.061251704 -0.057027534 -0.045493558 0.051472116 -0.19748965 0.15444143 0.10296777 -0.014000914
0.08600271 0.1387223 0.23504496 0.021905076 0.030486073 0.17011024 0.21011584 0.18192995
0.11430985 0.083740525 0.058611732 0.006380262 0.12536144 0.029125454 -0.05674332 0.079700515
-0.06391423 0.00076449977 0.01501902 0.06900206 -0.024912855 0.04453733 -0.024586339 -0.035818115
0.03195398 -0.072963856 -0.029115196 -0.041128393 -0.2362192 -0.14798626 -0.19630107 -0.15344647
00000000: c90c 7d3d 658a 253e ba1c 5f3d ce6a cd3c
00000010: ec40 b23d 2359 b4bd 091b 463c 75c6 603c
00000020: 0bc0 00be d2c5 6cbb dd31 4c3e 917a 39bc
00000030: 6012 80bd 2005 45bd 504a cd3d 1c84 1b3e
00000040: a40c 903c 0369 1ebe e3a0 cbbe 040b bc3b
00000050: 7dbc 8a3e 5478 063e c607 0dbe 5b4c e1be
00000060: bd8e 89bd cac6 04bd 3662 5bbd 2b61 663e
00000070: 6b27 85be 8df1 a3be c9a4 febd 21d8 0dbe
00000080: d379 ae3e 004e d0be 31c3 b4be 4482 2ebe
00000090: 88d7 cbbe f272 9c3e b2a7 69be ea0c e6be
000000a0: 5b01 c2bd efbc 8cbe 0e3c 0d3e fcd8 88be
000000b0: b13b 99be 5219 62bd 6ca3 21be 20e6 823e
000000c0: 5fa8 0bbe 5019 b6be aac5 8e3d 6483 d13e
000000d0: 7a04 93bd 59f8 55be e3c3 0b3e 7ac6 333e
000000e0: bfc1 573e cc12 a2bd 18b8 a6bd eddd ff3c
000000f0: e08f 0b3e 69ca 553e be5f 643d 6ea8 b13d
00000100: 8a19 fc3c 2614 7dbd c32c 5c3d cf78 ff3c
00000110: 20df 053e d219 19bd cdb2 84be e92f 703d
00000120: 2d29 0a3e 80f2 4e3e 84cc 823c 201e d23a
00000130: 1acd 263e 61fe a63c 13b3 683d 4f23 b13d
00000140: 362d 173e 96bc 913d cad1 ea3d 9f09 0b3e
00000150: fa83 d33d 3206 073c ba12 c63d 2987 e33d
00000160: 47b0 0d3e 6136 2e3e 5c5f a33c 50da c33d
00000170: 314a cc3d 32fa 493b 182c b2bc 86df 493d
00000180: 9ad8 143e 3bfd 453d 9157 1abd 36d4 973d
00000190: 96b9 9cbc 927c 07be 6e1c 7dbd d2e7 a4bd
000001a0: 6ac8 20be 6885 bfbd 7c45 c1bd 421b 11bd
000001b0: 7ad5 27be 6d3d 39be e7cd 57bd 1471 b2bd
000001c0: 93ef 66be 6c49 b1be c3d8 63be 2968 12be
000001d0: 7943 8cbe e6ac fcbd fdd6 97be c8ee 72bd
000001e0: 664a b7bc a3de 26be 2ae3 67be c183 41be
000001f0: f696 61bd 7517 a2bc 03b7 9bbc bb15 433c
00000200: 4531 a53d e38c cfbc f2c4 223d 99b5 cabd
00000210: 283b f33d 7658 023e 5afa e5ba 4b41 c43c
00000220: 8ada ae3d c132 bd3d 7108 2f3d aabd 573d
00000230: 094c 543d ea43 80bd 35d4 f13d 70dd 0b3e
00000240: 85d8 0d3e 5dc5 7dbd 1431 cfbd 40da ca3d
00000250: 13f4 e03d c252 203d 52c0 f43d 6db4 213e
00000260: f89b 363d f6a6 97be 1fe1 df3c 8354 9f3d
00000270: 7f3b 303e 8b55 b0bd 5d15 2fbe cbf6 c63d
00000280: a49d 0e3e 1db8 533d 1e35 cdbc 30ab 5cbe
00000290: bcb7 6ebc abb9 6c3c 8b11 393d d388 803d
000002a0: bc80 fcbd d0ec c03d 2d27 b8bc a659 623e
000002b0: 8b3f b23d 6cc3 59bd 8b14 c23d a598 f2bd
000002c0: e6b0 3abe f601 acbd 192d 3cbe 9013 eabd
000002d0: b424 f1bc 610f c7bd eb4b 34be ecef 46be
000002e0: 0c62 fdbd 718e 2bbe 1d8b 27be 9c63 5dbd
000002f0: ad7e 39be 6c1d 13be 56ad e3bd 6568 04be
00000300: 43a8 31be ec23 cabd d0d1 97bd 64fc 84bd
00000310: f5ba 07be df63 f4bd 2848 23be 421b 00be
00000320: 3185 eebe 5eb4 eabe 429d 203d 99f0 93bd
00000330: c4b2 2cbc d844 c6be 4ccb 97be 1924 213a
00000340: a728 333d 2146 7bbd 0053 5cbe 25c3 23be
00000350: a746 6abd 1245 433d ad64 8d3d a883 b0bd
00000360: 11e3 7abd b495 69bd 7457 3abd 6dd4 523d
00000370: ba3a 4abe e525 1e3e c4e0 d23d 1764 65bc
00000380: 3022 b03d 380d 0e3e a0af 703e 4672 b33c
00000390: eebd f93c 6131 2e3e 9b28 573e d84b 3a3e
000003a0: 481b ea3d 2780 ab3d db12 703d 8411 d13b
000003b0: c05e 003e 8198 ee3c af6b 68bd 063a a33d
000003c0: 77e5 82bd b668 483a 5612 763c f450 8d3d
000003d0: 0b16 ccbc c66c 363d 4a69 c9bc 04b6 12bd
000003e0: 2de2 023d 136e 95bd fe82 eebc 3f76 28bd
000003f0: 72e3 71be b689 17be 2603 49be 1221 1dbe

conv.2.bias f4 [9]
0.39255327 0.21455497 0.27247453 0.2833067 0.015739372 0.21895932 0.15774402 0.26593682
0.34233162
00000000: befc c83e 4cb4 5b3e c881 8b3e 930d 913e
00000010: dbef 803c df36 603e a687 213e df28 883e
00000020: 1746 af3e

freq_conv.1.weight f4 [3, 1, 5, 3, 9]
-0.10516788 -0.021659695 -0.06298845 -0.18618609 -0.5154971 -0.26071787 0.12678486 0.030215694
0.0905972 -0.037949782 0.023916058 -0.058710054 -0.39173004 -0.7729754 -0.67487806 0.02480068
0.096934915 -0.056387175 0.03730634 -0.21890947 -0.7900233 -0.838354 -0.9613684 -0.84727716
-0.3653166 0.025020882 -0.022371104 -0.0468784 -0.093006164 0.05443155 -0.041450825 -0.45744807
-0.2500967 0.1533661 -0.03287119 -0.009678664 -0.06853807 0.14887592 -0.03292958 -0.32890928
-0.733285 -0.70086765 -0.001549396 0.17754087 -0.06769012 0.061398644 -0.24316078 -0.8141112
-0.8110983 -0.78821415 -0.66687554 -0.3821562 0.066561446 -0.07026782 -0.1847298 -0.09861005
0.21683854 -0.059927415 -0.6084954 -0.283568 0.18682234 0.071667545 -0.06859376 0.031530667
0.12848552 0.04746393 -0.26482552 -0.71749175 -0.5911011 -0.04781031 0.1066536 -0.030288251
0.15351863 -0.15230861 -0.7814129 -0.7766917 -0.7820066 -0.6727234 -0.37608358 0.027835641
-0.08945263 -0.2105783 -0.1555777 0.18194829 -0.20116726 -0.7017709 -0.4147147 0.11310064
-0.061765183 -0.09814019 -0.0889738 0.04925783 0.036655452 -0.37146643 -0.7556988 -0.57483864
0.006494245 0.072017744 -0.022072531 0.025715528 -0.13675587 -0.84857565 -0.6751735 -0.8151409
-0.6916153 -0.36929372 -0.03803077 -0.067623496 -0.17420135 -0.08765882 0.16495785 -0.13599092
-0.74732083 -0.47808507 0.050263733 -0.08814218 -0.14478022 0.080935575 0.07994313 -0.062244806
-0.37229452 -0.8178921 -0.735609 -0.12095863 0.018466922 0.0037939164 0.013487902 -0.20661846
-0.89707136 -0.7539125 -0.7020934 -0.61844945 -0.36035448 -0.019911021 -0.05107759 -0.0076150973
-0.0153587535 0.01508163 0.023387602 -0.0735015 0.020814696 0.005756745 -0.144016 -0.019327883
-0.008355057 0.029487872 0.057013724 -0.017486727 0.04200686 0.035230923 0.022800209 0.027968714
0.052307833 0.0069352686 0.04871825 0.063025266 0.018044531 -0.051739864 0.06922381 0.034155767
0.06718414 0.018930659 0.034482505 0.04757434 0.07460796 0.10932244 -0.051210776 0.04205999
0.015398573 -0.09439674 -0.04297901 0.014820906 -0.0713596 0.01973189 -0.018260464 0.053678695
0.011276185 -0.093488 -0.0039271363 -0.056488186 -0.02732118 -0.0011739015 0.049418144 -0.08256985
0.05001654 -0.046525653 -0.03944937 -0.023220235 -0.04378801 -0.030803993 -0.023144413 -0.04548618
0.0063388953 -0.08792213 -0.0048488225 -0.08412262 -0.08555661 -0.03990815 0.02931981 -0.007484968
-0.13252573 -0.023615671 0.01708638 -0.02552573 -0.034930263 0.022531379 -0.04220844 0.05129041
-0.022034902 0.02901631 0.03535423 -0.099149086 -0.0015565756 -0.017515529 0.038902648 -0.041431237
0.06698712 0.054763213 -0.0019307706 -0.004627988 -0.095436685 -0.033005565 -0.026759408 -0.03168419
-0.023044849 -9.667391e-05 0.051967718 -0.0043603126 -0.0564287 -0.07703155 0.01806507 0.015223912
0.026875328 -0.05198485 -0.011637301 0.04508582 -0.023969153 -0.027656272 -0.0955227 0.01715402
0.073011756 -0.012860433 -0.0105762435 0.027556222 -0.0678303 -0.0600725 0.01769573 -0.1089058
-0.07097899 -0.05077881 -0.20017144 -0.22586156 0.035940364 -0.02463898 -0.060022473 0.050881237
00000000: 4262 d7bd ac6f b1bc 1700 81bd 91a7 3ebe
00000010: 9ef7 03bf d07c 85be e4d3 013e e786 f73c
00000020: 068b b93d 3b71 1bbd 9ceb c33c f479 70bd
00000030: d790 c8be b7e1 45bf cfc4 2cbf cc2a cb3c
00000040: d085 c63d 3df6 66bd 88ce 183d ce29 60be
00000050: f83e 4abf 5e9e 56bf 3d1c 76bf 28e7 58bf
00000060: c70a bbbe 98f8 cc3c 9b43 b7bc 9103 40bd
00000070: 047a bebd 9ef3 5e3d 57c8 29bd a236 eabe
00000080: ad0c 80be 010c 1d3e f1a3 06bd 4293 1ebc
00000090: b05d 8cbd ee72 183e 2be1 06bd cc66 a8be
000000a0: 91b8 3bbf 106c 33bf 1a15 cbba 46cd 353e
000000b0: 1ea1 8abd 257d 7b3d 24ff 78be 9769 50bf
000000c0: 23a4 4fbf 67c8 49bf 5bb8 2abf faa9 c3be
000000d0: 5e51 883d 93e8 8fbd cf29 3dbe 11f4 c9bd
000000e0: ec0a 5e3e 7376 75bd 5bc6 1bbf d32f 91be
000000f0: 5b4e 3f3e 6fc6 923d e37a 8cbd 4d26 013d
00000100: b591 033e 8a69 423d 3697 87be 8aad 37bf
00000110: 6752 17bf bed4 43bd 346d da3d 111f f8bc
00000120: fd33 1d3e caf6 1bbe ad0a 48bf 44d5 46bf
00000130: 9631 48bf 9a37 2cbf 078e c0be 9207 e43c
00000140: f132 b7bd d6a1 57be c34f 1fbe a750 3a3e
00000150: cafe 4dbe 42a7 33bf 7c55 d4be 4fa1 e73d
00000160: 7dfd 7cbd b9fd c8bd e537 b6bd 94c2 493d
00000170: 0724 163d d930 bebe 7a75 41bf a028 13bf
00000180: adcd d43b 0a7e 933d 74d1 b4bc 5fa9 d23c
00000190: bb09 0cbe 413c 59bf 2cd8 2cbf 13ad 50bf
000001a0: b30d 31bf 1114 bdbe 27c6 1bbd 307e 8abd
000001b0: d761 32be 7886 b3bd b6ea 283e 3441 0bbe
000001c0: 6b50 3fbf 91c7 f4be 58e1 4d3d e383 b4bd
000001d0: 4441 14be 8dc1 a53d 39b9 a33d 69f4 7ebd
000001e0: 639d bebe 6061 51bf df50 3cbf 29b9 f7bd
000001f0: f147 973c 5ba3 783b 5cfc 5c3c ca93 53be
00000200: 78a6 65bf 6900 41bf 65bc 33bf b452 1ebf
00000210: 6280 b8be 701c a3bc bc36 51bd 1188 f9bb
00000220: 48a3 7bbc f118 773c 5b97 bf3c f487 96bd
00000230: 9583 aa3c 14a3 bc3b ee78 13be 8255 9ebc
00000240: a6e3 08bc 8d90 f13c 3987 693d 5340 8fbc
00000250: 630f 2c3d 4d4e 103d 81c7 ba3c a51e e53c
00000260: bd40 563d 4041 e33b ca8c 473d 6413 813d
00000270: 20d2 933c 2eed 53bd 37c5 8d3d ebe6 0b3d
00000280: d797 893d 7814 9b3c 873d 0d3d 50dd 423d
00000290: 0fcc 983d 72e4 df3d 64c2 51bd 1947 2c3d
000002a0: 4c4a 7c3c 1453 c1bd c20a 30bd 63d3 723c
000002b0: fb24 92bd c6a4 a13c f896 95bc 31de 5b3d
000002c0: bfbf 383c a376 bfbd 35af 80bb 2860 67bd
000002d0: abd0 dfbc 99dd 99ba ae6a 4a3d 621a a9bd
000002e0: 25de 4c3d af91 3ebd aa95 21bd 5d38 bebc
000002f0: 0e5b 33bd a858 fcbc 5a99 bdbc b74f 3abd
00000300: 82b6 cf3b 8510 b4bd dfe2 9ebb 7b48 acbd
00000310: 4e38 afbd ba76 23bd 1930 f03c 7644 f5bb
00000320: d3b4 07be a775 c1bc bcf8 8b3c 561b d1bc
00000330: 0913 0fbd ba93 b83c c2e2 2cbd e515 523d
00000340: 8a82 b4bc 9db3 ed3c 99cf 103d ad0e cbbd
00000350: 0306 ccba ba7c 8fbc 6258 1f3d cdb3 29bd
00000360: 8b30 893d 644f 603d e911 fdba 61a6 97bb
00000370: 4f74 c3bd d830 07bd 8c36 dbbc 48c7 01bd
00000380: 8dc8 bcbc 69bd cab8 1adc 543d f4e0 8ebb
00000390: c821 67bd b8c2 9dbd 33fd 933c b76d 793c
000003a0: a629 dc3c 11ee 54bd 61aa 3ebc e9ab 383d
000003b0: f55a c4bc 688f e2bc 68a1 c3bd 9686 8c3c
000003c0: 3087 953d 91b4 52bc fb47 2dbc 96bd e13c
000003d0: 9dea 8abd 950e 76bd a3f6 903c 010a dfbd
000003e0: 6f5d 91bd 71fd 4fbd bef9 4cbe 4148 67be
000003f0: 3436 133d b0d7 c9bc 20da 75bd d868 503d

freq_conv.1.bias f4 [3]
-0.04102962 0.030284995 0.3625683
00000000: ad0e 28bd 3d18 f83c 8da2 b93e

freq_conv.3.weight f4 [9, 3, 5, 3, 5]
-0.12424784 -0.07882554 -0.2927253 -0.16574341 -0.044722714 -0.1733187 -0.118533336 -0.2062203
-0.21069738 -0.08849538 -0.15487532 -0.031826787 -0.11804303 -0.017540291 -0.017316857 -0.2250315
-0.100982204 -0.24934378 -0.22137286 -0.06293845 -0.15102471 -0.10977793 -0.24609028 -0.18414979
-0.07655673 -0.07090552 -0.07653606 -0.045578357 -0.08953259 -0.039703798 -0.22637124 -0.17709409
-0.20926236 -0.2016841 -0.118118554 -0.16666223 -0.12002978 -0.2734242 -0.237147 -0.11366881
-0.17293134 -0.032356597 -0.16966783 -0.11658883 -0.051386964 -0.26207012 -0.14959094 -0.30379137
-0.1051021 -0.13475007 -0.18872972 -0.16335736 -0.14772439 -0.19190918 -0.14526013 -0.15069818
-0.11850986 -0.065853596 -0.02515974 0.016586918 -0.17518322 -0.14670962 -0.20571229 -0.10622298
-0.12066048 -0.13388275 -0.13673197 -0.12509064 -0.13617006 -0.09559836 -0.114316486 -0.09360045
-0.09079213 -0.013815068 0.016844062 0.020334395 -0.020289669 0.07561578 -0.0055031697 -0.018667044
0.07314399 0.0220049 0.063789 0.08765456 0.014251247 0.09916876 0.021927422 0.07166303
0.074789286 -0.050091885 0.032476015 -0.09163445 0.0354384 0.046732936 -0.05880247 0.079276495
0.01359319 0.10515005 0.01807124 -0.07345336 0.025488652 -0.00080998614 0.043907348 0.08071888
-0.071366094 -0.029887218 -0.0036053527 0.029917575 0.053540908 0.0020285358 0.07050679 0.097815745
0.02767331 0.08707836 -0.041423988 0.02529021 0.05762173 0.02153797 0.08530896 -0.07476929
0.019859223 -0.0679433 -0.019738514 0.062092192 -0.071899116 0.069434196 -0.01293645 0.11702509
0.043927446 0.038455747 0.07951041 0.0052252444 -0.00848838 0.009533883 -0.06570218 0.043838106
-0.03700885 0.05121799 -0.053758156 -0.07269847 0.08433421 -0.0054964595 0.022378417 0.0927327
0.010060509 -0.044328198 0.015161827 -0.00014594432 -0.0067684655 0.035984643 -0.026397992 0.06505102
0.10958694 0.011631907 -0.07706303 -0.054641817 0.04845137 0.08199242 -0.03373626 -0.023848623
-0.08799977 0.07817715 0.07149133 -0.08797149 -0.059296202 -0.054062236 0.0886693 0.15858549
0.041049972 -0.0013294279 -0.07274067 0.03224527 0.037586167 0.045356616 -0.07618647 -0.055895027
0.00055791857 0.094203375 -0.034815356 0.030531218 0.09816365 0.17874087 0.0901975 0.12058367
0.017762126 -0.04759426 0.0076682176 0.06723752 -0.013408458 0.041013975 -0.035141952 0.030652465
0.12001793 0.06086376 -0.018324573 0.065627 0.0871807 0.039053522 0.0896193 0.03777337
0.041312333 0.026571218 0.049388155 -0.0006829779 -0.026580635 -0.04533175 0.022984182 0.052616645
-0.027791355 -0.04107614 0.058308706 0.015965922 0.06043187 0.04748551 0.07446541 -0.05220231
-0.067274176 -0.005222147 0.045918994 -0.041883584 -0.021905245 -0.035087198 0.0065258266 0.026375221
0.04594803 0.29721338 -0.12584548 -0.74789834 -0.6885463 0.2558344 0.47782966 0.10407769
-0.39315256 -0.19477682 0.52768767 0.09438476 -0.14877644 -0.4858923 -0.33460283 0.085232235
0.2230764 -0.07309352 -0.5967445 -0.6697982 0.1373288 0.36813313 0.1461093 -0.31211564
-0.21043345 0.5336558 0.076269135 -0.051348448 -0.37130842 -0.14071585 0.16015759 0.23932768
00000000: a775 febd 496f a1bd 17e0 95be a4b8 29be
00000010: 2a2f 37bd 757a 31be 9bc1 f2bd 6a2b 53be
00000020: 0ec1 57be 113d b5bd a397 1ebe ce5c 02bd
00000030: 8bc0 f1bd a8b0 8fbc 15dc 8dbc a86e 66be
00000040: c2cf cebd fa53 7fbe 91af 62be e0e5 80bd
00000050: 39a6 1abe 40d3 e0bd 17ff 7bbe c391 3cbe
00000060: c6c9 9cbd ea36 91bd f0be 9cbd 5fb0 3abd
00000070: dd5c b7bd 73a0 22bd ddcd 67be 2758 35be
00000080: df48 56be 4786 4ebe 24e8 f1bd 81a9 2abe
00000090: 2cd2 f5bd 42fe 8bbe aad6 72be 31cb e8bd
000000a0: ea14 31be 5a88 04bd 67bd 2dbe 20c6 eebd
000000b0: 237b 52bd 0e2e 86be 5e2e 19be 8b8a 9bbe
000000c0: c53f d7bd ecfb 09be 5d42 41be 2747 27be
000000d0: 1045 17be d783 44be 12bf 14be a050 1abe
000000e0: 4cb5 f2bd 40de 86bd cd1b cebc 4ae1 873c
000000f0: 3b63 33be 0c3b 16be 3ea6 52be 6f8b d9bd
00000100: d71c f7bd 8f18 09be 7703 0cbe c317 00be
00000110: 2a70 0bbe 13c9 c3bd c31e eabd 98b1 bfbd
00000120: 39f1 b9bd 9858 62bc 8ffc 893c 5194 a63c
00000130: 8536 a6bc 72dc 9a3d ef53 b4bb a1eb 98bc
00000140: 84cc 953d 9f43 b43c cfa3 823d 3c84 b33d
00000150: 107e 693c fe18 cb3d 23a1 b33c 11c4 923d
00000160: 202b 993d 262d 4dbd 9205 053d d8aa bbbd
00000170: db27 113d 096b 3f3d dcda 70bd b75b a23d
00000180: f9b5 5e3c e958 d73d 230a 943c b76e 96bd
00000190: 94cd d03c 4055 54ba 31d8 333d f14f a53d
000001a0: 6328 92bd 0ad6 f4bc c847 6cbb b415 f53c
000001b0: b64d 5b3d 2ff1 043b dd65 903d 9f53 c83d
000001c0: 23b3 e23c 2456 b23d 33ac 29bd 6a2d cf3c
000001d0: c304 6c3d 6670 b03c 77b6 ae3d a420 99bd
000001e0: cfaf a23c db25 8bbd aab2 a1bc 6254 7e3d
000001f0: d83f 93bd 8433 8e3d 67f3 53bc daaa ef3d
00000200: 44ed 333d c683 1d3d 5bd6 a23d 8738 ab3b
00000210: d912 0bbc 0134 1c3c dd8e 86bd 968f 333d
00000220: 9896 17bd f5c9 513d 8331 5cbd efe2 94bd
00000230: 6ab7 ac3d a51b b4bb f152 b73c a4ea bd3d
00000240: d5d4 243c 7c91 35bd 5069 783c a108 19b9
00000250: 01ca ddbb a264 133d 9a40 d8bc 7839 853d
00000260: 1e6f e03d c193 3e3c 39d3 9dbd 19d0 5fbd
00000270: f274 463d a4eb a73d 082f 0abd 305e c3bc
00000280: 3939 b4bd 571b a03d 0c6a 923d 662a b4bd
00000290: 93e0 72bd 5d70 5dbd 4098 b53d 3c64 223e
000002a0: 0424 283d 3340 aeba 0ff9 94bd 9e13 043d
000002b0: f4f3 193d dcc7 393d a707 9cbd 2ff2 64bd
000002c0: 4841 123a b3ed c03d 8c9a 0ebd 9b1c fa3c
000002d0: 060a c93d d907 373e 78b9 b83d 92f4 f63d
000002e0: e181 913c 33f2 42bd ac45 fb3b d3b3 893d
000002f0: 26af 5bbc 45fe 273d 02f1 0fbd e11a fb3c
00000300: f6cb f53d 474c 793d 6a1d 96bc 7367 863d
00000310: cb8b b23d 96f6 1f3d 538a b73d 40b8 1a3d
00000320: 1f37 293d e2ab d93c 3c4b 4a3d df09 33ba
00000330: a2bf d9bc c9ad 39bd 5349 bc3c 8d84 573d
00000340: b2aa e3bc 743f 28bd 1cd5 6e3d f7ca 823c
00000350: 6987 773d 2b80 423d 5281 983d 17d2 55bd
00000360: 0bc7 89bd 8b1e abbb 8e15 3c3d 1f8e 2bbd
00000370: a172 b3bc 98b7 0fbd 9ad6 d53b d910 d83c
00000380: 0034 3c3d 5a2c 983e a3dd 00be 4476 3fbf
00000390: 9244 30bf bafc 823e 17a6 f43e af26 d53d
000003a0: 4b4b c9be 9373 47be 8a16 073f cc4c c13d
000003b0: da58 18be e0c6 f8be 1051 abbe 3d8e ae3d
000003c0: 246e 643e 0eb2 95bd 3fc4 18bf e577 2bbf
000003d0: ec9f 0c3e f27b bc3e ad9d 153e 9fcd 9fbe
000003e0: de7b 57be ab9d 083f fe32 9c3d c052 52bd
000003f0: 231c bebe d117 10be 5a00 243e 5112 753e

freq_conv.3.bias f4 [9]
0.11167418 0.19939984 0.10645823 0.103185266 0.24289462 0.08050689 0.13347618 0.07770752
0.14800031
00000000: 6fb5 e43d 792f 4c3e c606 da3d cc52 d33d
00000010: 5eb9 783e cce0 a43d fbad 083e 1f25 9f3d
00000020: 658d 173e

linear1.weight f4 [96, 96]
0.071907245 -0.0046281978 -0.020160334 -0.075121015 0.020553071 0.030437337 0.07458628 -0.0033063358
-0.052120138 0.091488704 0.085879624 0.023000259 -0.05131381 -0.054314118 0.01694957 -0.06598223
0.028469386 0.03583257 0.026663931 -0.19135095 0.02740571 0.16855393 0.108167246 0.09664367
0.087661125 0.18547687 0.08724171 0.17631309 0.09303638 -0.071858056 -0.10141807 0.026917359
-0.04396124 0.13275793 -0.0001655878 0.040539645 0.026728477 0.17964453 -0.047354892 0.01169645
0.046126045 -0.07824668 -0.10627628 -0.07644897 -0.10958305 0.07557302 -0.108924605 0.12102481
0.08544959 0.02647517 -0.13917884 -0.03006135 0.012252531 -0.02518373 -0.09580895 0.03358614
-0.09255212 0.034822907 -0.10564423 0.07363254 -0.11252905 0.044367034 -0.026355777 -0.07207323
-0.04254986 -0.028578231 -0.14110167 0.019760702 0.032526046 0.06757729 -0.026570894 0.039828677
-0.003111956 0.07210331 -0.03399701 0.016051043 -0.020846175 0.053575497 -0.111227565 0.10575504
-0.14994928 0.13443339 -0.13654135 0.054098584 -0.003977685 -0.031918045 0.004646258 0.02425575
0.021183658 -0.0437838 0.12716447 0.08082086 0.04695233 0.14422011 0.03285802 0.10742238
0.25140524 -0.0012436818 -0.031017458 -0.0018476623 0.014892527 -0.057696372 0.009044048 -0.064244665
-0.013731746 0.114154026 0.0012988389 -0.11647861 -0.053632475 -0.057982832 -0.14209421 -0.051793974
-0.105911866 -0.07634255 0.07070073 0.05499629 -0.017955424 -0.15426537 -0.012131829 0.03255048
0.040435396 -0.031460542 0.031619724 -0.017311014 -0.03580164 -0.1191531 0.0053238603 0.10938232
-0.047227263 0.018412217 0.008613309 -0.0070687304 0.02534939 -0.011086246 0.06613038 -0.06031892
-0.08972263 -0.019686209 0.0013268949 0.10662696 -0.016929999 0.049186934 -0.016150165 -0.045585603
0.033796303 0.08361832 -0.006903167 -0.057139862 0.031083755 0.069845594 0.09632653 -0.017266149
0.048585407 0.036976308 0.13636073 -0.006951103 -0.009220057 -0.082694635 -0.05523213 -0.046191163
0.13724855 -0.097772636 -0.024569262 0.04402964 -0.032731898 -0.0502231 0.10903004 0.04034342
0.07446725 -0.1122997 -0.019488228 0.07236576 0.018877948 0.0795716 0.026610652 0.10001134
0.11383223 0.04709173 0.09128032 0.049838305 0.008134832 0.098829605 0.08570215 -0.0444248
0.0018389219 0.09003542 0.123164065 0.19952776 0.05918208 0.15669812 0.23626311 0.24096332
-0.13779275 0.17882852 0.09730235 -0.0702769 0.15139085 0.046115883 -0.026529182 0.08361513
-0.1425217 0.09782997 -0.34097788 -0.07573823 -0.05381102 -0.44143197 0.04759478 0.012872383
-0.018492494 0.011924666 0.08395371 0.04230979 -0.18744816 -0.15485565 -0.27386945 0.027185557
0.28943253 -0.18482298 -0.22766267 0.11211579 -0.25586313 0.121129535 0.07960704 -0.12943041
-0.31027666 0.1758763 0.25358525 0.025365962 0.059418533 0.048792213 0.14144126 0.21805896
-0.14315537 -0.12383513 -0.016468346 0.030670973 0.10901903 0.0671182 0.23332368 -0.01782704
0.10026298 -0.23995338 -0.06459772 0.04421105 0.16472355 0.098492295 -0.18239091 -0.2637637
0.21949843 0.5949164 0.14249109 -0.4926898 -0.24465364 -0.15654257 0.21258736 0.036304504
00000000: 1b44 933d 23a8 97bb 4927 a5bc 0cd9 99bd
00000010: ea5e a83c b957 f93c b1c0 983d 1caf 58bb
00000020: ed7b 55bd 6e5e bb3d a8e1 af3d 0a6b bc3c
00000030: 6e2e 52bd 7b78 5ebd d3d9 8a3c b121 87bd
00000040: a138 e93c 2cc5 123d 516e da3c 81f1 43be
00000050: f181 e03c 6799 2c3e ca86 dd3d 1eed c53d
00000060: ad87 b33d a6ed 3d3e c8ab b23d 6b8b 343e
00000070: dc89 be3d 512a 93bd 47b4 cfbd cb81 dc3c
00000080: b410 34bd b2f1 073e a3a1 2db9 e60c 263d
00000090: aef5 da3c bcf4 373e 34f7 41bd 78a2 3f3c
000000a0: aaee 3c3d cc3f a0bd 61a7 d9bd 4791 9cbd
000000b0: 146d e0bd 07c6 9a3d dd13 dfbd dbdb f73d
000000c0: 3200 af3d 75e2 d83c e684 0ebe 3843 f6bc
000000d0: d7be 483c 1c4e cebc 7c37 c4bd 9f91 093d
000000e0: f78b bdbd 77a2 0e3d 015c d8bd a8cc 963d
000000f0: a175 e6bd 35ba 353d 12e8 d7bc 219b 93bd
00000100: c348 2ebd e51c eabc f57c 10be 32e1 a13c
00000110: 083a 053d f665 8a3d 34ab d9bc 6523 233d
00000120: f5f1 4bbb e6aa 933d 7340 0bbd 7a7d 833c
00000130: 99c5 aabc fb71 5b3d 47cb e3bd 1996 d83d
00000140: 4e8c 19be e8a8 093e 7fd1 0bbe 7a96 5d3d
00000150: 3d57 82bb 7fbc 02bd a33f 983b ffb3 c63c
00000160: 5a89 ad3c a456 33bd 6737 023e 6885 a53d
00000170: 1651 403d 70ae 133e 2296 063d 4400 dc3d
00000180: 30b8 803e 0903 a3ba 5318 febc 422d f2ba
00000190: c9ff 733c 0853 6cbd 7d2d 143c b592 83bd
000001a0: 1efb 60bc 96c9 e93d cd3d aa3a 568c eebd
000001b0: baad 5bbd 687f 6dbd 2581 11be eb25 54bd
000001c0: 52e8 d8bd 7c59 9cbd 8bcb 903d ca43 613d
000001d0: 4117 93bc bef7 1dbe 94c4 46bc a753 053d
000001e0: 969f 253d c5dc 00bd af83 013d d4cf 8dbc
000001f0: bea4 12bd 8a06 f4bd c773 ae3b d603 e03d
00000200: 6071 41bd 38d5 963c d61e 0d3c cfa0 e7bb
00000210: 86a9 cf3c 16a3 35bc 5d6f 873d f910 77bd
00000220: 80c0 b7bd f944 a1bc 34eb ad3a 3c5f da3d
00000230: c8b0 8abc 3d78 493d 5a4d 84bc f8b7 3abd
00000240: fe6d 0a3d 1540 ab3d f633 e2bb 7d0b 6abd
00000250: 5ca3 fe3c 350b 8f3d d846 c53d bd71 8dbc
00000260: 7e01 473d 7874 173d 26a2 0b3e 14c6 e3bb
00000270: b90f 17bc ce5b a9bd 163b 62bd f232 3dbd
00000280: e28a 0c3e 053d c8bd 7a45 c9bc 6c58 343d
00000290: e211 06bd bdb6 4dbd 244b df3d 243f 253d
000002a0: 4982 983d 63fd e5bd c7a5 9fbc 8034 943d
000002b0: eda5 9a3c 6ff6 a23d 95fe d93c bfd2 cc3d
000002c0: df20 e93d 42e3 403d 2df1 ba3d 4023 4c3d
000002d0: f547 053c 2d67 ca3d 9c84 af3d c7f6 35bd
000002e0: fb07 f13a 7e64 b83d 713d fc3d 0151 4c3e
000002f0: e968 723d 7975 203e f5ee 713e 17bf 763e
00000300: 8b19 0dbe d31e 373e 7446 c73d 56ed 8fbd
00000310: 3406 1b3e 02e4 3c3d ba53 d9bc 693e ab3d
00000320: 35f1 11be 145b c83d a794 aebe a51c 9bbd
00000330: f268 5cbd 5f03 e2be bef2 423d b0e6 523c
00000340: 927d 97bc ad5f 433c ecef ab3d 084d 2d3d
00000350: 69f2 3fbe 7b92 1ebe 9e38 8cbe 3fb4 de3c
00000360: 8030 943e 3c42 3dbe 6720 69be f79c e53d
00000370: 7e00 83be c312 f83d 0409 a33d 6889 04be
00000380: 95dc 9ebe eb18 343e edd5 813e 47cc cf3c
00000390: d960 733d 58da 473d fad5 103e d94a 5f3e
000003a0: 5297 12be 469d fdbd a0e8 86bc b141 fb3c
000003b0: 5f45 df3d 4475 893d 67ec 6e3e 030a 92bc
000003c0: ad56 cd3d 57b6 75be cf4b 84bd a516 353d
000003d0: 4aad 283e 54b6 c93d afc4 3abe 090c 87be
000003e0: 32c4 603e 714c 183f 2fe9 113e d641 fcbe
000003f0: 7c86 7abe b24c 20be 80b0 593e 08b4 143d

linear1.bias f4 [96]
0.005043887 0.1550925 0.2199305 0.17300902 0.07435681 0.1611117 0.16699874 0.15964705
0.16237637 0.1476596 0.14546491 0.14643824 0.14799051 -0.14047177 0.13454829 0.058745947
0.18978417 0.17042181 -0.107017666 0.23475522 0.05106057 0.13311076 0.19532888 0.122615285
0.17713156 0.12064059 0.16779487 -0.19812983 0.15997693 -0.011679931 0.1866301 -0.17466217
0.054098893 0.15103677 0.007517052 -0.121204734 0.085933976 0.071012676 0.07757232 0.14620283
0.18161415 0.0034606482 0.04914102 0.09883062 0.038952306 0.19436075 0.22396943 0.0859281
0.16479515 0.096365206 0.09701389 0.06691819 0.06156911 -0.10243951 -0.031494383 -0.009262215
0.1666679 0.10169915 -0.016109163 0.05896511 0.1265077 0.14315997 0.25463223 0.12362984
-0.1221319 0.17391615 0.05809854 -0.21287762 -0.15870585 0.0013976749 0.058854524 0.17169714
0.14087318 -0.22085139 0.052871406 -0.054503746 0.00921436 0.3104781 -0.18476102 -0.22420344
-0.10126991 -0.14693652 -0.013162952 0.083195694 0.12451661 0.16865772 0.26277214 0.04964461
-0.27493602 -0.031106755 -0.1790412 0.28756818 0.21751292 -0.16916935 -0.040090285 -0.18803424
00000000: 3147 a53b 91d0 1e3e 7635 613e 4729 313e
00000010: 6248 983d 77fa 243e b801 2b3e 847a 233e
00000020: fe45 263e 1434 173e c1f4 143e e8f3 153e
00000030: d38a 173e d5d7 0fbe 07c7 093e 979f 703d
00000040: c856 423e 0e83 2e3e 142c dbbd ac63 703e
00000050: e324 513d 304e 083e 4b04 483e b91d fb3d
00000060: fa61 353e 6a12 f73d 6bd2 2b3e 8ce2 4abe
00000070: fed0 233e 2e5d 3fbc f61b 3f3e a4da 32be
00000080: cd96 5d3d 62a9 1a3e 9a51 f63b 303a f8bd
00000090: 27fe af3d 186f 913d 3dde 9e3d 32b6 153e
000000a0: 0ff9 393e 0bcc 623b 1848 493d b567 ca3d
000000b0: 748c 1f3d 8106 473e 3e58 653e 12fb af3d
000000c0: 0fc0 283e 1f5b c53d 38af c63d 670c 893d
000000d0: e42f 7c3d cecb d1bd 4100 01bd 8cc0 17bc
000000e0: fdaa 2a3e a547 d03d 5df7 83bc 6685 713d
000000f0: 3c8b 013e 8798 123e 285f 823e a431 fd3d
00000100: 4a20 fabd 1317 323e bcf8 6d3d 97fc 59be
00000110: c983 22be 3032 b73a 7111 713d 60d1 2f3e
00000120: 0f41 103e de26 62be b08f 583d 523f 5fbd
00000130: d4f7 163c fcf6 9e3e fe31 3dbe 9695 65be
00000140: 9966 cfbd 8776 16be 6ca9 57bc 8162 aa3d
00000150: 9002 ff3d 9cb4 2c3e 128a 863e 2658 4b3d
00000160: 6ac4 8cbe 98d3 febc 9456 37be 233c 933e
00000170: b5bb 5e3e bb3a 2dbe b635 24bd 0c8c 40be

linear2.weight f4 [96, 96]
0.026235277 0.086767755 0.041325122 0.027780022 -0.039743185 0.004865749 0.009999051 -0.029518008
0.16278094 0.15974537 0.043789037 0.008413933 -0.040097363 -0.08133795 -0.13190158 -0.13755682
-0.10832554 -0.14679267 -0.052938204 -0.044866543 0.10157744 0.17354302 0.24456646 0.067217834
-0.053103317 -0.047866188 0.017766625 -0.08275498 -0.13111955 -0.1427949 -0.15974662 0.044889137
0.018651119 0.17344934 0.23513782 0.08588311 -0.049102157 0.015353487 0.022618912 -0.19510098
-0.116668746 -0.058187194 -0.048248544 -0.07045562 -0.09579579 -0.06756879 0.19558245 0.087445796
-0.16972525 -0.09418126 -0.10677198 -0.16227476 -0.067477524 -0.0032827535 -0.037854128 -0.11668664
-0.01256027 0.09602271 0.25185576 0.0155014675 -0.06637889 -0.07355508 -0.049760707 -0.15178871
-0.035305984 -0.03390117 -0.109183304 -0.10898202 -0.0099852905 0.10044828 0.17428185 0.098148376
-0.11458053 -0.06111591 0.046399146 0.014507079 -0.046342548 0.109477974 0.074926086 0.026748728
0.0117946705 -0.03209779 0.12869702 0.10743791 -0.021983592 0.09033429 0.01992014 -0.026179666
-0.01670548 -0.014405565 -0.027122894 0.0770553 0.008875387 -0.034601334 0.034621775 0.017429043
-0.31078738 -0.3493159 -0.009426881 -0.09073628 -0.1674197 0.06834776 0.048193358 0.19982111
-0.008402217 -0.02564517 0.13684687 -0.045636084 0.053942215 0.0021966365 0.04499192 0.13586058
-0.15484145 0.031942554 -0.0970071 0.022791548 -0.11430986 0.011636594 -0.07127568 0.00965861
-0.09767316 -0.21258636 0.2192665 -0.09649901 0.016565748 0.09829304 0.2583287 0.09503733
0.074993715 0.23023589 0.20497935 0.3085697 -0.052692823 -0.12043235 0.07482699 -0.08554582
0.02244735 -0.2614244 0.07235333 0.1251882 0.03438722 0.2500489 5.168188e-05 0.13818425
0.102854066 0.19785766 -0.056841366 -0.24447069 -0.06992904 -0.011692271 0.0068214163 0.16806853
0.26391348 0.21228758 0.012012105 -0.004991271 0.09697601 0.115003414 -0.18592317 -0.16878788
-0.23472409 -0.3297809 -0.11620555 -0.35401452 -0.19333148 -0.30143502 -0.026775688 -0.0026407011
0.056610975 -0.10018301 0.07130304 -0.010315129 0.06487792 0.092269905 -0.32048324 -0.02406927
0.034717195 -0.44623423 -0.1628317 -0.31654203 0.12040553 -0.17318077 -0.29957 -0.18312524
-0.22108142 -0.040053938 -0.4645389 -0.17750713 -0.023713103 -0.28546864 -0.2902994 -0.3893099
-0.15132557 -0.24941485 -0.29746258 -0.4167995 -0.32392552 -0.21632884 -0.13326897 0.1274617
0.029362384 0.00037094203 -0.056984525 -0.2914178 0.02157219 -0.16567382 0.07807917 -0.16692631
0.09698012 0.09504671 0.038986035 -0.03887831 0.11111371 0.15466647 -0.03383814 -0.100916594
0.024154691 0.09055424 0.08010799 0.02933197 0.150307 0.14733572 -0.14602947 -0.14338605
-0.19639173 -0.019622339 0.13748196 -0.02109258 0.30520466 0.08695128 0.2497235 0.08325855
-0.06461934 -0.048565418 -0.025593154 -0.22610472 -0.06049186 -0.054246332 0.14995143 0.14748551
-0.014134137 -0.025766188 0.068339504 -0.22038133 -0.042091966 -0.10306881 0.096672274 -0.011995504
0.28221598 0.020576712 0.17855202 0.26761776 -0.089519426 0.05893628 -0.018130967 -0.2383905
00000000: 5deb d63c 4bb3 b13d 8844 293d ee92 e33c
00000010: c0c9 22bd dc70 9f3b 0fd3 233c c0cf f1bc
00000020: 0cb0 263e 4a94 233e 225c 333d 98da 093c
00000030: 223d 24bd 8394 a6bd 3511 07be b2db 0cbe
00000040: c8d9 ddbd d150 16be bbd5 58bd fbc5 37bd
00000050: d507 d03d 43b5 313e a16f 7a3e 81a9 893d
00000060: dd82 59bd 560f 44bd 508b 913c 717b a9bd
00000070: 3444 06be d438 12be 9e94 23be acdd 373d
00000080: 3bca 983c b49c 313e f8c7 703e 7ce3 af3d
00000090: 581f 49bd 318d 7b3c 4c4b b93c 8dc8 47be
000000a0: 06f0 eebd b255 6ebd 44a0 45bd 094b 90bd
000000b0: 9530 c4bd 8161 8abd c446 483e c816 b33d
000000c0: 75cc 2dbe 1be2 c0bd 45ab dabd 5b2b 26be
000000d0: a831 8abd 7723 57bb ee0c 1bbd 68f9 eebd
000000e0: 97c9 4dbc 8ea7 c43d 3df3 803e def9 7d3c
000000f0: a8f1 87bd 0ca4 96bd e2d1 4bbd 806e 1bbe
00000100: 029d 10bd f4db 0abd 7f9b dfbd f731 dfbd
00000110: 5899 23bc d4b7 cd3d f176 323e 0402 c93d
00000120: 32a9 eabd ad54 7abd 080d 3e3d 19af 6d3c
00000130: afd1 3dbd fd35 e03d d972 993d 2620 db3c
00000140: 6f3e 413c f978 03bd 27c9 033e 6808 dc3d
00000150: ef16 b4bc 2f01 b93d 902f a33c bd76 d6bc
00000160: eed9 88bc 5205 6cbc d530 debc 2bcf 9d3d
00000170: 126a 113c 21ba 0dbd 90cf 0d3d 5ac7 8e3c
00000180: 861f 9fbe 89d9 b2be 3473 1abc f1d3 b9bd
00000190: 1270 2bbe e9f9 8b3d 6666 453d e89d 4c3e
000001a0: 74a9 09bc d215 d2bc 9621 0c3e e7ec 3abd
000001b0: 83f2 5c3d 72f5 0f3b 7349 383d 091f 0b3e
000001c0: c28e 1ebe 32d6 023d a9ab c6bd 57b5 ba3c
000001d0: 4a1b eabd 6aa7 3e3c fcf8 91bd 263f 1e3c
000001e0: de08 c8bd 3db0 59be 6687 603e 46a1 c5bd
000001f0: e4b4 873c dd4d c93d a943 843e efa2 c23d
00000200: 4e96 993d f5c2 6b3e 1be6 513e d9fc 9d3e
00000210: 6ed4 57bd 3ca5 f6bd e53e 993d a632 afbd
00000220: 81e3 b73c 6bd9 85be fc2d 943d 5631 003e
00000230: 9dd9 0c3d 6906 803e ffc4 5838 2c80 0d3e
00000240: 27a5 d23d 339b 4a3e 7ed2 68bd 8656 7abe
00000250: f536 8fbd f090 3fbc 3086 df3b 281a 2c3e
00000260: ab1f 873e ea61 593e 6cce 443c d18d a3bb
00000270: 5c9b c63d e986 eb3d a562 3ebe bbd6 2cbe
00000280: 835b 70be 0bd9 a8be 2dfd edbd 6441 b5be
00000290: b0f8 45be b155 9abe b058 dbbc 9d0f 2dbb
000002a0: e9e0 673d c02c cdbd 5407 923d c900 29bc
000002b0: b7de 843d 01f8 bc3d 6116 a4be eb2c c5bc
000002c0: 9e33 0e3d d078 e4be 5abd 26be cc11 a2be
000002d0: 2d97 f63d 4d56 31be 3d61 99be 2f85 3bbe
000002e0: 2b63 62be 990f 24bd 0bd8 edbe 6ec4 35be
000002f0: fb41 c2bc f228 92be 1fa2 94be a153 c7be
00000300: 17f5 1abe 9b66 7fbe 044d 98be be66 d5be
00000310: 91d9 a5be 4f85 5dbe a977 08be 5285 023e
00000320: 6289 f03c ff7a c239 9b68 69bd b734 95be
00000330: 29b8 b03c 66a6 29be f9e7 9f3d bbee 2abe
00000340: 839d c63d d9a7 c23d d2af 1f3d dd3e 1fbd
00000350: 968f e33d e360 1e3e dd99 0abd 5cad cebd
00000360: 0fe0 c53c 8074 b93d a80f a43d 9949 f03c
00000370: 14ea 193e 2ddf 163e c088 15be cbd3 12be
00000380: ea1a 49be 07bf a0bc 12c8 0c3e 59ca acbc
00000390: c943 9c3e 8313 b23d 84b7 7f3e 7583 aa3d
000003a0: 2557 84bd 88ec 46bd bca8 d1bc ff87 67be
000003b0: 50c6 77bd 6731 5ebd de8c 193e 7106 173e
000003c0: de92 67bc 9d13 d3bc 95f5 8b3d a5ab 61be
000003d0: a068 2cbd be15 d3bd 1dfc c53d ca88 44bc
000003e0: 9d7e 903e 7e90 a83c 57d6 363e 3205 893e
000003f0: f655 b7bd 2b67 713d 6587 94bc a41c 74be

linear2.bias f4 [96]
0.05031488 -0.054619156 -0.15496333 -0.11949833 0.07591771 -0.12733106 0.03828347 0.09495005
-0.13151562 -0.12845165 0.10188381 0.13741975 0.010020548 0.047793616 -0.12887646 0.010626505
0.03791582 0.15061788 0.045141455 0.14464459 -0.08437567 0.066542126 0.12317997 0.009576471
0.028121296 0.002560528 0.1250942 -0.10412867 0.10453425 -0.16907142 -0.038021255 0.06051294
0.13215636 -0.16592826 -0.019728895 0.08721016 0.03990355 0.058092605 0.049030896 0.08263142
0.14768997 0.07565836 0.054065935 0.13670474 0.14832956 -0.03718684 0.037374556 0.2049599
-0.046749644 0.116642125 0.032146078 0.0033830514 0.14686179 0.100231595 0.022139195 0.12844503
0.082649626 0.1322317 -0.17872582 0.14174137 0.20164043 -0.11803436 0.04227796 0.09768783
-0.034118127 0.025704795 0.0031683329 -0.16287749 0.100729704 0.04981397 0.13237454 0.0210191
0.09540018 0.059408877 -0.113561064 0.11827442 -0.08117443 -0.047970027 0.1444161 -0.1722187
-0.0034540202 -0.16049783 -0.1992677 -0.18651927 -0.02091331 -0.01046833 0.18221793 0.071680054
-0.06314064 0.015534796 0.15888081 -0.069676735 0.07384282 0.09171743 -0.1706956 -0.119618766
00000000: fa16 4e3d 56b8 5fbd b5ae 1ebe 8abb f4bd
00000010: bf7a 9b3d 1363 02be 21cf 1c3d 2c75 c23d
00000020: 08ac 06be d488 03be 75a8 d03d c3b7 0c3e
00000030: 392d 243c 3dc3 433d 31f8 03be cb1a 2e3c
00000040: 9e4d 1b3d 933b 1a3e 3fe6 383d b61d 143e
00000050: 27cd acbd 3d47 883d c845 fc3d a1e6 1c3c
00000060: a25e e63c 88ce 273b b218 003e 6a41 d5bd
00000070: 0e16 d63d 0f21 2dbe 2dbc 1bbd 6bdc 773d
00000080: ff53 073e 19e9 29be 7e9e a1bc 3e9b b23d
00000090: e871 233d 83f2 6d3d 9fd4 483d a93a a93d
000000a0: 0a3c 173e c5f2 9a3d 3e74 5d3d 54fc 0b3e
000000b0: b4e3 173e 3a51 18bd 1016 193d 02e1 513e
000000c0: 8e7c 3fbd 11e2 ee3d 9bab 033d 2fb6 5d3b
000000d0: f062 163e 3946 cd3d 425d b53c 1887 033e
000000e0: 3544 a93d bf67 073e e703 37be a624 113e
000000f0: d47a 4e3e 00bc f1bd a72b 2d3d 8f10 c83d
00000100: 73bf 0bbd dd92 d23c cea3 4f3b 5bc9 26be
00000110: 604b ce3d bc09 4c3d 318d 073e 3f30 ac3c
00000120: 2b61 c33d b956 733d b492 e8bd dc39 f23d
00000130: c83e a6bd 387c 44bd d0e1 133e 195a 30be
00000140: d85c 62bb 8b59 24be d50c 4cbe e8fe 3ebe
00000150: 6452 abbc 5c83 2bbc 5697 3a3e fecc 923d
00000160: e14f 81bd a885 7e3c a7b1 223e adb2 8ebd
00000170: e83a 973d 59d6 bb3d d4ca 2ebe affa f4bd

linear3.weight f4 [96, 192]
-0.118694626 -0.17607284 -0.14027604 -0.17301075 -0.15553589 -0.1288293 -0.10621165 -0.10423403
-0.17613012 -0.04437993 -0.1101745 -0.10437636 -0.10569819 -0.059971754 -0.09643413 -0.22015913
-0.12025627 -0.14191352 0.0016438493 -0.099904336 -0.07356662 -0.13246085 -0.11363861 -0.080769815
-0.110569656 -0.10475964 -0.053906646 0.07542992 -0.15257724 -0.14444016 -0.14249021 0.03618191
-0.18285689 -0.13383988 -0.0661715 -0.07220673 -0.15512659 -0.12551704 -0.16961849 -0.06417771
-0.11331202 -0.098576605 -0.10256318 -0.08769659 -0.0033060035 -0.009581782 -0.05453005 -0.20266561
-0.14036076 -0.19844952 -0.16750404 -0.088077776 -0.037515398 -0.06893509 -0.089609064 -0.08789623
-0.19327489 -0.07436928 -0.2248282 -0.14659531 -0.19068494 -0.13355342 -0.04793159 -0.16071077
0.09087349 -0.16694506 -0.033051003 0.14280492 0.14685367 -0.026098855 -0.11357486 -0.11282699
-0.13131562 0.023011481 -0.21598107 0.09552697 -0.21197943 -0.12257323 0.072328076 0.07075212
0.012991704 0.05316284 -0.12706457 -0.15934089 -0.17363699 -0.156392 -0.09425477 -0.21028936
0.0034403012 0.03070199 0.10378318 -0.051331736 -0.03656039 -0.0014896321 -0.11853402 0.015153653
-0.043475933 0.03886467 0.011454826 0.10474816 -0.12227469 -0.02214809 -0.057766207 -0.084130704
-0.012689141 0.10088884 -0.09480918 -0.07564816 0.06545415 -0.077663794 0.14110917 -0.15688172
-0.13592216 -0.035329692 -0.1281801 -0.08921939 0.12128801 -0.15082325 -0.11960203 -0.051669303
-0.14643574 -0.09733357 -0.08031204 -0.008126721 -0.11064456 -0.055749543 -0.07557682 -0.072957925
-0.0895351 0.023173476 -0.05648664 -0.091017365 -0.07062639 -0.003853939 -0.114264324 -0.042586982
-0.0292129 -0.04634152 -0.11042185 -0.043323014 -0.1459102 -0.038390722 -0.08609029 -0.118034504
-0.018610016 -0.1080703 -0.07502284 -0.09562667 -0.06320852 -0.11633331 -0.16288851 -0.058435008
-0.08194839 -0.10396281 0.058152456 -0.16380335 -0.044225488 -0.12072262 -0.12917298 -0.11932684
-0.0732125 -0.14493522 -0.08260137 0.083135806 -0.20604143 -0.0142826 -0.17618029 -0.050599083
-0.15262164 -0.13867708 0.12163504 -0.048904262 -0.00067026494 -0.054000925 -0.1477946 0.10395189
-0.003161646 0.0690013 0.12826337 0.21837468 -0.13436739 -0.12051127 -0.1539899 -0.13479692
0.04559194 -0.074009284 -0.06302527 0.11244662 -0.031130973 -0.14685465 0.13156697 -0.00042204052
-0.15450734 -0.16362955 -0.14554046 -0.13858707 -0.10499737 -0.18714695 -0.13720837 -0.11270685
-0.2188219 -0.021721767 -0.15730084 -0.16124517 -0.07769133 -0.077699654 -0.14853276 -0.14610256
-0.14193952 -0.10460006 -0.026354441 -0.063333906 -0.14069562 -0.17387918 -0.11241941 -0.16782099
-0.16140054 -0.10567112 -0.12919158 0.06457041 -0.0884738 -0.17059697 -0.046786875 0.0096303485
-0.18288204 -0.02444453 -0.06536848 -0.02365175 -0.17733759 -0.114796996 -0.1367341 -0.080082834
-0.07652629 -0.120744914 -0.10712042 -0.08872779 -0.02472075 -0.032392856 -0.13576739 -0.12915076
-0.13133428 -0.11316614 -0.09814091 -0.051709387 -0.033144955 -0.15561906 -0.1475829 -0.14171453
-0.21880499 -0.072426416 -0.11681021 -0.08213387 -0.17427327 -0.10590632 -0.13930595 -0.10052565
00000000: 2b16 f3bd 704c 34be 86a4 0fbe bb29 31be
00000010: cd44 1fbe d4eb 03be 7e85 d9bd a778 d5bd
00000020: 745b 34be bbc7 35bd 2ba3 e1bd 46c3 d5bd
00000030: 4b78 d8bd f1a4 75bd 427f c5bd 6571 61be
00000040: eb48 f6bd c751 11be 6e76 d73a a59a ccbd
00000050: 19aa 96bd d1a3 07be 5cbb e8bd a56a a5bd
00000060: 5872 e2bd 398c d6bd 37cd 5cbd 007b 9a3d
00000070: 353d 1cbe 1fe8 13be f4e8 11be 7c33 143d
00000080: d63e 3bbe 520d 09be ec84 87bd 1fe1 93bd
00000090: 81d9 1ebe 8a87 00be 78b0 2dbe 9a6f 83bd
000000a0: 2210 e8bd 88e2 c9bd a50c d2bd 459a b3bd
000000b0: 89a9 58bb e8fc 1cbc e75a 5fbd 9387 4fbe
000000c0: bbba 0fbe 5a36 4bbe 2e86 2bbe 1f62 b4bd
000000d0: bfa9 19bd d72d 8dbd f584 b7bd f002 b4bd
000000e0: dae9 45be ec4e 98bd 5d39 66be 151d 16be
000000f0: ea42 43be 3ac2 08be ea53 44bd 5d91 24be
00000100: e11b ba3d a5f3 2abe 7d60 07bd 743b 123e
00000110: cf60 163e 44cd d5bc f099 e8bd d611 e7bd
00000120: 9a77 06be 9382 bc3c 242a 5dbe a5a3 c33d
00000130: 2311 59be ac07 fbbd be20 943d 7de6 903d
00000140: 28db 543c 47c1 593d 371d 02be 422a 23be
00000150: e5cd 31be 3925 20be a508 c1bd 1856 57be
00000160: ad76 613b bd82 fb3c 478c d43d 3a41 52bd
00000170: 59c0 15bd c23f c3ba f7c1 f2bd 0747 783c
00000180: d213 32bd 8f30 1f3d 06ad 3b3c 3486 d63d
00000190: 276b fabd e96f b5bc 429c 6cbd b84c acbd
000001a0: 1de6 4fbc cf9e ce3d 512b c2bd 6ced 9abd
000001b0: d30c 863d 320e 9fbd ec7e 103e 9aa5 20be
000001c0: 2e2f 0bbe deb5 10bd a541 03be a8b8 b6bd
000001d0: d965 f83d 6971 1abe e9f1 f4bd 31a3 53bd
000001e0: 40f3 15be d356 c7bd a47a a4bd f025 05bc
000001f0: 9d99 e2bd a259 64bd 05c8 9abd f76a 95bd
00000200: 2e5e b7bd 4dd6 bd3c 895e 67bd 5067 babd
00000210: 92a4 90bd 5e92 7cbb 6a03 eabd b06f 2ebd
00000220: e44f efbc 9bd0 3dbd da24 e2bd 7973 31bd
00000230: 7c69 15be 973f 1dbd 1b50 b0bd 13bc f1bd
00000240: 0874 98bc f653 ddbd 93a5 99bd ead7 c3bd
00000250: 7873 81bd 2940 eebd 3fcc 26be 8c59 6fbd
00000260: 8fd4 a7bd 74ea d4bd 4531 6e3d 11bc 27be
00000270: c925 35bd 6c3d f7bd ec45 04be a161 f4bd
00000280: 6ff0 95bd e669 14be e82a a9bd 1b43 aa3d
00000290: 86fc 52be 9101 6abc 9b68 34be fc40 4fbd
000002a0: d948 1cbe 5d01 0ebe cb1b f93d d64f 48bd
000002b0: b8b4 2fba 1330 5dbd 7857 17be bae4 d43d
000002c0: 9e33 4fbb 8e50 8d3d 7957 033e 9d9d 5f3e
000002d0: 9b97 09be 9dce f6bd 87af 1dbe 3408 0abe
000002e0: 9dbe 3a3d 2e92 97bd 6513 81bd 6a4a e63d
000002f0: 6206 ffbc 1161 16be 7eb9 063e 5245 ddb9
00000300: 2c37 1ebe 818e 27be 8f08 15be c5e9 0dbe
00000310: dc08 d7bd 73a3 3fbe 5a80 0cbe d9d2 e6bd
00000320: d912 60be d9f1 b1bc 7913 21be 741d 25be
00000330: a21c 9fbd ff20 9fbd f918 18be e99b 15be
00000340: 9858 11be 8e38 d6bd 45e5 d7bc 35b5 81bd
00000350: 8312 10be 620d 32be 263c e6bd 44d9 2bbe
00000360: 2f46 25be 1a6a d8bd cc4a 04be 7e3d 843d
00000370: c031 b5bd f9b0 2ebe 98a3 3fbd 9cc8 1d3c
00000380: 6e45 3bbe e53f c8bc e9df 85bd 51c1 c1bc
00000390: fc97 35be b01a ebbd 0604 0cbe 7802 a4bd
000003a0: d1b9 9cbd 1c49 f7bd f361 dbbd eab6 b5bd
000003b0: 2c83 cabc 5fae 04bd 9b06 0bbe 1940 04be
000003c0: 7e7c 06be a6c3 e7bd 1afe c8bd 39cd 53bd
000003d0: 01c3 07bd 9a5a 1fbe f91f 17be 9d1d 11be
000003e0: 6a0e 60be 4d54 94bd 313a efbd cd35 a8bd
000003f0: b174 32be 6ae5 d8bd 38a6 0ebe 64e0 cdbd

linear3.bias f4 [96]
-0.028873947 -0.032887492 -0.07153523 -0.059013806 -0.036980957 -0.0063742576 -0.014530559 -0.014130143
-0.07872601 -0.12047816 -0.11612391 -0.13739738 -0.0750833 -0.05057328 -0.022315504 -0.031850334
-0.015338106 -0.015320268 -0.10524729 -0.10040596 -0.098417565 -0.12144826 -0.14145118 -0.027463984
-0.05330494 -0.07379864 -0.06913183 -0.041342612 -0.14398137 -0.12189507 -0.010975749 -0.028488819
-0.10809288 -0.102605715 -0.06466871 -0.13691224 -0.10271079 -0.10789638 -0.18456395 -0.123732485
-0.06254979 -0.0732806 -0.1290692 -0.12887014 -0.051058542 -0.16742253 -0.144573 -0.05396449
-0.16919138 -0.12991431 -0.12285748 -0.0798604 -0.081260614 -0.0998978 -0.095633514 -0.15957563
-0.03940144 -0.14129014 -0.053574175 -0.08702405 -0.1094132 -0.06391667 -0.13591929 -0.026539478
-0.058829796 -0.053647377 -0.13267049 -0.12941466 -0.045205727 -0.13806932 -0.03151067 -0.10181714
-0.063317195 -0.110565364 -0.14624056 -0.13491303 -0.09770784 -0.11894237 -0.06427792 -0.052459385
-0.06811908 -0.10175345 -0.00055805396 -0.060074136 -0.09951252 -0.057594154 -0.024743386 -0.077587694
-0.018560909 -0.0782141 -0.11809457 -0.049636863 -0.046277698 -0.030074906 -0.022544166 -0.04524535
00000000: 0e89 ecbc 09b5 06bd 1081 92bd 76b8 71bd
00000010: 5879 17bd 26df d0bb 9511 6ebc 1e82 67bc
00000020: 1a3b a1bd 41bd f6bd 5fd2 edbd e6b1 0cbe
00000030: 46c5 99bd ed25 4fbd 01cf b6bc 7f75 02bd
00000040: ae4c 7bbc dd01 7bbc e48b d7bd a4a1 cdbd
00000050: 268f c9bd deb9 f8bd 94d8 10be 26fc e0bc
00000060: 4856 5abd be23 97bd fd94 8dbd df56 29bd
00000070: da6f 13be 1fa4 f9bd a1d3 33bc 6261 e9bc
00000080: cd5f ddbd f222 d2bd 0771 84bd b932 0cbe
00000090: 095a d2bd c7f8 dcbd 55fe 3cbe 7567 fdbd
000000a0: 1b1a 80bd 2414 96bd b72a 04be 89f6 03be
000000b0: c322 51bd d070 2bbe f20a 14be de09 5dbd
000000c0: 8140 2dbe 4208 05be b49c fbbd d98d a3bd
000000d0: f76b a6bd 3897 ccbd 81db c3bd cb67 23be
000000e0: 6863 21bd 5dae 10be 9870 5bbd aa39 b2bd
000000f0: 0714 e0bd bee6 82bd 6d2e 0bbe 5269 d9bc
00000100: 83f7 70bd 5abd 5bbd c6da 07be 4785 04be
00000110: a429 39bd 0b62 0dbe 5511 01bd 8185 d0bd
00000120: 72ac 81bd 1870 e2bd 16c0 15be a426 0abe
00000130: 0c1b c8bd 0f98 f3bd 24a4 83bd a7df 56bd
00000140: 0482 8bbd 1d64 d0bd 5e4a 12ba 4c10 76bd
00000150: 38cd cbbd d9e7 6bbd a4b2 cabc 4ce6 9ebd
00000160: 0c0d 98bc b72e a0bd 91db f1bd 0650 4bbd
00000170: af8d 3dbd a65f f6bc 8bae b8bc 3053 39bd
